tflite_quant_modeld.tflite (tflite, 289272 bytes, 2 tensors)

sequential_1/dense_1/MatMul i1 [6, 47628] scale=0.0012056734 zero_point=0
000000 08 07 fa 02 fa 0e fd 0c fe c2 08 08 03 06 07 ea
       0.0096453875 0.008439714 -0.0072340406 0.0024113469 -0.0072340406 0.016879428 -0.0036170203 0.014468081 -0.0024113469 -0.07475175 0.0096453875 0.0096453875 0.0036170203 0.0072340406 0.008439714 -0.026524816
000010 03 14 02 f4 ff ae 0d 04 ff 04 f5 b4 fc 16 08 08
       0.0036170203 0.024113469 0.0024113469 -0.014468081 -0.0012056734 -0.098865226 0.015673755 0.0048226938 -0.0012056734 0.0048226938 -0.013262408 -0.09163118 -0.0048226938 0.026524816 0.0096453875 0.0096453875
000020 1b b2 05 10 f8 03 f0 a0 fc 01 fa f6 3b be ff 10
       0.03255318 -0.094042525 0.006028367 0.019290775 -0.0096453875 0.0036170203 -0.019290775 -0.11574465 -0.0048226938 0.0012056734 -0.0072340406 -0.012056734 0.07113473 -0.07957445 -0.0012056734 0.019290775
000030 00 fc ff cd 13 04 f6 12 21 ab 04 0b fc 03 e3 ca
       0.0 -0.0048226938 -0.0012056734 -0.061489344 0.022907795 0.0048226938 -0.012056734 0.021702122 0.039787225 -0.102482244 0.0048226938 0.013262408 -0.0048226938 0.0036170203 -0.03496453 -0.06510636
000040 fe 0b f5 1e 10 a5 fd fb 07 00 ee d8 07 02 fd ef
       -0.0024113469 0.013262408 -0.013262408 0.036170203 0.019290775 -0.10971628 -0.0036170203 -0.006028367 0.008439714 0.0 -0.021702122 -0.048226938 0.008439714 0.0024113469 -0.0036170203 -0.020496449
000050 08 a3 f1 f8 06 08 f5 c6 fc ff 05 13 0e b5 f8 fd
       0.0096453875 -0.11212763 -0.018085102 -0.0096453875 0.0072340406 0.0096453875 -0.013262408 -0.06992906 -0.0048226938 -0.0012056734 0.006028367 0.022907795 0.016879428 -0.090425506 -0.0096453875 -0.0036170203
000060 02 fb eb b8 f5 11 f7 1d 12 af 09 0a fb fe f3 01
       0.0024113469 -0.006028367 -0.025319142 -0.08680849 -0.013262408 0.020496449 -0.010851061 0.03496453 0.021702122 -0.09765955 0.010851061 0.012056734 -0.006028367 -0.0024113469 -0.015673755 0.0012056734
000070 03 03 fb e7 1c b9 fe 0a 04 02 ee ad 0f 09 03 fa
       0.0036170203 0.0036170203 -0.006028367 -0.030141836 0.033758856 -0.08560281 -0.0024113469 0.012056734 0.0048226938 0.0024113469 -0.021702122 -0.100070894 0.018085102 0.010851061 0.0036170203 -0.0072340406
000080 15 aa 08 10 02 09 f2 d6 11 11 06 d4 06 a6 12 08
       0.025319142 -0.10368791 0.0096453875 0.019290775 0.0024113469 0.010851061 -0.016879428 -0.050638285 0.020496449 0.020496449 0.0072340406 -0.05304963 0.0072340406 -0.10851061 0.021702122 0.0096453875
000090 fb 06 04 b4 0b 10 0a df 0e a4 08 09 07 06 f2 b6
       -0.006028367 0.0072340406 0.0048226938 -0.09163118 0.013262408 0.019290775 0.012056734 -0.039787225 0.016879428 -0.11092196 0.0096453875 0.010851061 0.008439714 0.0072340406 -0.016879428 -0.08921984
0000a0 16 0d fe ee 01 99 0d f6 02 05 ff ea 0e 00 0b de
       0.026524816 0.015673755 -0.0024113469 -0.021702122 0.0012056734 -0.12418436 0.015673755 -0.012056734 0.0024113469 0.006028367 -0.0012056734 -0.026524816 0.016879428 0.0 0.013262408 -0.040992897
0000b0 fa a2 09 fd 08 06 ef d1 17 10 fc 05 f6 ad 06 fb
       -0.0072340406 -0.1133333 0.010851061 -0.0036170203 0.0096453875 0.0072340406 -0.020496449 -0.05666665 0.02773049 0.019290775 -0.0048226938 0.006028367 -0.012056734 -0.100070894 0.0072340406 -0.006028367
0000c0 fa 03 ff cb 15 12 08 10 0e b7 12 06 03 00 09 d2
       -0.0072340406 0.0036170203 -0.0012056734 -0.063900694 0.025319142 0.021702122 0.0096453875 0.019290775 0.016879428 -0.08801416 0.021702122 0.0072340406 0.0036170203 0.0 0.010851061 -0.05546098
0000d0 2b 0c 08 04 07 ac 0e 0d ff 06 f9 ce 0a 0b f8 0c
       0.051843956 0.014468081 0.0096453875 0.0048226938 0.008439714 -0.10127657 0.016879428 0.015673755 -0.0012056734 0.0072340406 -0.008439714 -0.060283672 0.012056734 0.013262408 -0.0096453875 0.014468081
0000e0 1f ab 16 07 f9 06 ed fc 04 0a f8 22 1e 9b 01 01
       0.037375875 -0.102482244 0.026524816 0.008439714 -0.008439714 0.0072340406 -0.022907795 -0.0048226938 0.0048226938 0.012056734 -0.0096453875 0.040992897 0.036170203 -0.12177302 0.0012056734 0.0012056734
0000f0 06 f9 e6 ea 00 08 00 12 28 96 01 06 05 08 f1 07
       0.0072340406 -0.008439714 -0.03134751 -0.026524816 0.0 0.0096453875 0.0 0.021702122 0.048226938 -0.12780139 0.0012056734 0.0072340406 0.006028367 0.0096453875 -0.018085102 0.008439714

sequential_1/conv2d_1/Conv2D i1 [12, 3, 3, 3]
000000 85 eb 03 81 cd b2 0c 77 f0 aa 01 be 35 94 82 f5
       -123 -21 3 -127 -51 -78 12 119 -16 -86 1 -66 53 -108 -126 -11
000010 a9 37 a8 05 b2 ac 3e 6f 7c 9f 8e ea 78 ec 37 9e
       -87 55 -88 5 -78 -84 62 111 124 -97 -114 -22 120 -20 55 -98
000020 c6 b3 ab 35 83 86 98 35 e1 fe c3 34 a3 b4 8e d2
       -58 -77 -85 53 -125 -122 -104 53 -31 -2 -61 52 -93 -76 -114 -46
000030 43 08 c4 ad b0 7f 9a 59 a5 a7 f8 81 c3 6e a6 fd
       67 8 -60 -83 -80 127 -102 89 -91 -89 -8 -127 -61 110 -90 -3
000040 36 0e 62 a3 ff 4c ba f5 cf 22 d0 62 66 44 1b 31
       54 14 98 -93 -1 76 -70 -11 -49 34 -48 98 102 68 27 49
000050 08 aa de 24 36 da a8 ab 02 75 be ce 4e 7f 77 07
       8 -86 -34 36 54 -38 -88 -85 2 117 -66 -50 78 127 119 7
000060 30 62 8e 88 e5 d9 bc d4 a3 2b 4f 17 99 45 ac 32
       48 98 -114 -120 -27 -39 -68 -44 -93 43 79 23 -103 69 -84 50
000070 ed 98 9b b9 61 ae f1 f9 81 19 bc 13 52 40 3a 5c
       -19 -104 -101 -71 97 -82 -15 -7 -127 25 -68 19 82 64 58 92
000080 12 57 40 46 b6 71 ee f5 70 20 09 44 b6 9b 03 64
       18 87 64 70 -74 113 -18 -11 112 32 9 68 -74 -101 3 100
000090 40 7b 86 d3 24 33 d2 f9 c1 9d 3b b4 81 3c 2d 57
       64 123 -122 -45 36 51 -46 -7 -63 -99 59 -76 -127 60 45 87
0000a0 ce 4f e6 ac ae da 2f 39 04 74 6c 34 0c 20 07 dc
       -50 79 -26 -84 -82 -38 47 57 4 116 108 52 12 32 7 -36
0000b0 a2 f2 72 de 42 52 00 75 81 ee 74 51 c1 cb 7a a8
       -94 -14 114 -34 66 82 0 117 -127 -18 116 81 -63 -53 122 -88
0000c0 bf 6a 26 9d 42 cc ef 67 64 81 f4 cd 9f 4d 38 47
       -65 106 38 -99 66 -52 -17 103 100 -127 -12 -51 -97 77 56 71
0000d0 e1 cc b7 bf 9a b0 4f 37 b6 66 3c 0d 2e d2 cc 1c
       -31 -52 -73 -65 -102 -80 79 55 -74 102 60 13 46 -46 -52 28
0000e0 76 e5 c9 7f e6 d8 69 4f 9b ad 8d ba f8 2b f1 b1
       118 -27 -55 127 -26 -40 105 79 -101 -83 -115 -70 -8 43 -15 -79
0000f0 33 de 9b 7d 26 9c 76 ac 41 a9 d9 99 e8 f8 98 7f
       51 -34 -101 125 38 -100 118 -84 65 -87 -39 -103 -24 -8 -104 127
