base/base-model/object-detection-model/trained.tflite (tflite, 40968 bytes, 21 tensors)

model_1/Conv1/Conv2D i1 [8, 3, 3, 3]
10 -4 12 9 -24 29 13 -25
20 41 29 26 67 18 58 25
-33 38 -20 -93 -13 -29 -127 -1
-7 -56 17 31 77 26 6 10
-1 -31 -68 -26 53 124 40 2
1 -2 -55 -127 -39 30 47 12
5 0 1 -32 -52 -2 43 92
11 53 127 13 16 43 -1 -47
-83 -28 -81 -93 -38 -31 -6 -20
0 10 7 4 16 0 0 11
-7 46 -30 -16 80 -34 -38 32
-16 -12 79 -55 -37 127 -54 -74
59 -28 -29 19 -20 -3 42 -27
-14 16 -10 0 -11 -23 -4 28
45 10 -15 -28 -4 -28 -59 -9
64 127 19 -33 -61 -7 -9 -13
3 21 25 -3 -11 -13 -2 -53
-66 -35 -76 -88 -51 -58 -25 -19
-72 -106 -43 -100 -127 -58 -56 -29
-20 -8 2 -10 -9 -3 -5 -7
13 6 -101 -5 36 1 21 -14
66 19 -20 -127 -33 46 15 23
-26 111 19 -31 -49 -11 19 18
-4 0 37 -9 32 -5 16 -2
-14 23 -6 -6 22 -7 18 84
-6 23 127 -22 -2 61 -27 -27
-50 -20 -41 -52 -32 -19 5 -19
00000000: 0afc 0c09 e81d 0de7 1429 1d1a 4312 3a19
00000010: df26 eca3 f3e3 81ff f9c8 111f 4d1a 060a
00000020: ffe1 bce6 357c 2802 01fe c981 d91e 2f0c
00000030: 0500 01e0 ccfe 2b5c 0b35 7f0d 102b ffd1
00000040: ade4 afa3 dae1 faec 000a 0704 1000 000b
00000050: f92e e2f0 50de da20 f0f4 4fc9 db7f cab6
00000060: 3be4 e313 ecfd 2ae5 f210 f600 f5e9 fc1c
00000070: 2d0a f1e4 fce4 c5f7 407f 13df c3f9 f7f3
00000080: 0315 19fd f5f3 fecb bedd b4a8 cdc6 e7ed
00000090: b896 d59c 81c6 c8e3 ecf8 02f6 f7fd fbf9
000000a0: 0d06 9bfb 2401 15f2 4213 ec81 df2e 0f17
000000b0: e66f 13e1 cff5 1312 fc00 25f7 20fb 10fe
000000c0: f217 fafa 16f9 1254 fa17 7fea fe3d e5e5
000000d0: ceec d7cc e0ed 05ed

model_1/expanded_conv_depthwise_BN/FusedBatchNormV3;model_1/expanded_conv_depthwise/depthwise;model_1/block_5_project/Conv2D i1 [1, 3, 3, 8]
-21 -1 6 1 0 28 -8 3
13 2 6 -5 15 127 4 127
5 -1 7 -6 0 17 -4 12
9 -127 -5 4 -16 -5 -115 4
-127 105 -82 127 -127 -7 127 -34
14 -2 -5 -64 -9 2 43 -18
20 1 4 -5 0 -22 -2 7
61 0 127 -22 16 -112 -6 15
10 1 -5 -9 -3 -20 -10 7
00000000: ebff 0601 001c f803 0d02 06fb 0f7f 047f
00000010: 05ff 07fa 0011 fc0c 0981 fb04 f0fb 8d04
00000020: 8169 ae7f 81f9 7fde 0efe fbc0 f702 2bee
00000030: 1401 04fb 00ea fe07 3d00 7fea 1090 fa0f
00000040: 0a01 fbf7 fdec f607

model_1/expanded_conv_project/Conv2D i1 [8, 1, 1, 8]
-10 -13 -21 16 -9 -127 10 37
-62 20 -127 115 6 58 -18 34
9 -13 25 -6 -9 -127 11 27
29 53 55 127 19 -46 -42 -11
16 54 26 -16 -127 -7 23 -11
61 -29 127 -103 13 -59 -8 -53
28 127 46 -39 41 -12 -64 -22
-22 -26 -41 -16 -14 -127 21 41
00000000: f6f3 eb10 f781 0a25 c214 8173 063a ee22
00000010: 09f3 19fa f781 0b1b 1d35 377f 13d2 d6f5
00000020: 1036 1af0 81f9 17f5 3de3 7f99 0dc5 f8cb
00000030: 1c7f 2ed9 29f4 c0ea eae6 d7f0 f281 1529

model_1/block_1_expand/Conv2D i1 [48, 1, 1, 8]
8 61 1 -14 100 -27 127 -5
127 98 72 4 -17 -52 -14 125
-66 15 -5 127 7 -19 -30 55
46 -26 -127 4 1 -49 25 114
-127 71 -121 -21 13 29 -38 -46
123 -17 -8 -48 0 -30 9 -127
4 -4 -6 -1 -127 -28 60 3
-5 -60 -4 2 -23 2 -127 -1
-15 23 33 -9 127 17 -65 -21
127 -38 20 -11 -4 -35 44 117
124 9 -9 -35 -3 8 0 -127
-44 0 7 127 -2 -43 -34 41
-113 4 -74 -19 16 99 -52 -127
119 2 127 14 -8 24 25 43
-126 -9 16 13 0 -13 8 127
-125 16 3 127 -1 -10 -23 120
62 -60 115 87 -14 -127 33 55
12 -55 -89 127 2 22 -11 114
17 -33 -118 46 -13 2 44 127
26 13 -10 127 -7 5 -66 -44
18 59 108 -118 5 -75 5 -127
5 -5 -5 -3 -127 -11 54 3
5 52 0 -12 3 127 -14 3
127 34 -3 96 0 -3 -47 -126
-127 37 -87 -38 28 -55 -45 -52
-51 -9 -69 -47 3 -127 12 -53
-98 -20 -127 9 7 7 -21 -38
99 1 127 27 -10 53 15 41
3 -55 -27 41 28 -127 5 9
-3 -16 31 -127 -14 0 25 3
-39 5 127 -8 -1 6 -6 -111
-2 9 3 0 127 27 -47 -2
00000000: 083d 01f2 64e5 7ffb 7f62 4804 efcc f27d
00000010: be0f fb7f 07ed e237 2ee6 8104 01cf 1972
00000020: 8147 87eb 0d1d dad2 7bef f8d0 00e2 0981
00000030: 04fc faff 81e4 3c03 fbc4 fc02 e902 81ff
00000040: f117 21f7 7f11 bfeb 7fda 14f5 fcdd 2c75
00000050: 7c09 f7dd fd08 0081 d400 077f fed5 de29
00000060: 8f04 b6ed 1063 cc81 7702 7f0e f818 192b
00000070: 82f7 100d 00f3 087f 8310 037f fff6 e978
00000080: 3ec4 7357 f281 2137 0cc9 a77f 0216 f572
00000090: 11df 8a2e f302 2c7f 1a0d f67f f905 bed4
000000a0: 123b 6c8a 05b5 0581 05fb fbfd 81f5 3603
000000b0: 0534 00f4 037f f203 7f22 fd60 00fd d182
000000c0: 8125 a9da 1cc9 d3cc cdf7 bbd1 0381 0ccb
000000d0: 9eec 8109 0707 ebda 6301 7f1b f635 0f29
000000e0: 03c9 e529 1c81 0509 fdf0 1f81 f200 1903
000000f0: d905 7ff8 ff06 fa91 fe09 0300 7f1b d1fe

model_1/block_1_depthwise_BN/FusedBatchNormV3;model_1/block_1_depthwise/depthwise;model_1/block_6_expand/Conv2D i1 [1, 3, 3, 48]
109 -28 -72 -100 33 -103 61 -29
69 14 99 42 -102 60 45 -116
76 -100 2 -53 -127 -54 38 112
-18 72 4 73 -127 -61 83 -79
-47 -61 43 81 -127 60 100 80
-58 -127 -49 48 -66 -38 9 -80
79 -48 77 127 100 41 114 -103
-78 88 60 59 -2 53 55 120
78 -99 -102 -73 93 -101 53 0
102 127 -22 91 4 40 81 -50
50 113 127 127 -90 59 74 -27
78 23 -33 101 127 110 -3 -6
20 -15 0 -49 46 58 19 -76
-19 40 -83 27 91 -15 -66 2
32 -35 91 -33 40 9 -84 -81
11 10 3 36 32 61 36 17
-5 -41 30 28 -10 24 7 -53
-65 105 18 67 -62 -84 1 82
127 71 -127 18 -81 -127 65 -48
102 -76 127 -94 97 93 127 127
-42 111 -11 -82 122 -80 52 127
4 -13 -34 23 -55 49 64 -127
-127 -71 -23 28 -6 96 127 127
-59 -78 -127 61 -9 -31 -127 -127
115 127 114 -18 -127 19 127 -127
-127 -127 84 -127 42 127 102 -124
-35 127 127 -127 -66 -127 76 -39
81 1 -127 78 11 127 127 -110
127 127 -32 7 -14 127 100 -40
127 -6 -66 127 -16 127 127 49
25 57 1 6 -26 86 24 -76
-9 -93 -86 -72 -127 -13 -74 4
00000000: 6de4 b89c 2199 3de3 450e 632a 9a3c 2d8c
00000010: 4c9c 02cb 81ca 2670 ee48 0449 81c3 53b1
00000020: d1c3 2b51 813c 6450 c681 cf30 beda 09b0
00000030: 4fd0 4d7f 6429 7299 b258 3c3b fe35 3778
00000040: 4e9d 9ab7 5d9b 3500 667f ea5b 0428 51ce
00000050: 3271 7f7f a63b 4ae5 4e17 df65 7f6e fdfa
00000060: 14f1 00cf 2e3a 13b4 ed28 ad1b 5bf1 be02
00000070: 20dd 5bdf 2809 acaf 0b0a 0324 203d 2411
00000080: fbd7 1e1c f618 07cb bf69 1243 c2ac 0152
00000090: 7f47 8112 af81 41d0 66b4 7fa2 615d 7f7f
000000a0: d66f f5ae 7ab0 347f 04f3 de17 c931 4081
000000b0: 81b9 e91c fa60 7f7f c5b2 813d f7e1 8181
000000c0: 737f 72ee 8113 7f81 8181 5481 2a7f 6684
000000d0: dd7f 7f81 be81 4cd9 5101 814e 0b7f 7f92
000000e0: 7f7f e007 f27f 64d8 7ffa be7f f07f 7f31
000000f0: 1939 0106 e656 18b4 f7a3 aab8 81f3 b604

model_1/block_1_project/Conv2D i1 [8, 1, 1, 48]
-26 34 -26 0 -46 -22 -73 21
12 24 43 44 36 6 -39 13
-41 43 13 -61 29 38 -127 6
-7 10 -32 47 0 -6 22 22
19 -20 34 17 -1 109 -62 -15
-12 21 -26 33 2 6 23 -4
-75 -103 -55 5 89 -25 -127 60
-27 -37 -9 -77 -25 76 8 -12
113 -121 -10 -21 -55 2 4 -26
21 -7 -22 -53 25 -16 -110 -18
27 -57 -75 -102 43 10 -92 -1
-2 39 8 79 -11 9 7 42
8 -75 9 60 120 16 102 -7
-33 -27 -10 -48 3 -30 18 28
-29 -94 48 -70 4 -73 -63 7
-78 61 75 -100 -40 -15 -61 -50
19 8 -73 -51 -7 127 83 -35
-12 6 -33 -77 46 36 47 -28
9 7 23 -14 35 23 18 -88
24 18 -17 4 5 -111 -17 3
-27 8 -19 -4 -5 50 -127 7
18 -92 31 33 40 -20 -32 51
-1 7 1 -32 -101 -40 6 -13
-8 -1 41 -3 -12 7 3 -49
32 -52 10 74 49 8 -31 -7
-35 -11 21 -35 76 31 -24 35
-48 -64 64 28 36 -50 127 27
-27 13 -57 -17 -15 9 -79 -46
82 -27 -41 -62 -42 -42 -23 3
-65 95 3 -12 61 84 45 23
-64 -21 -36 51 -14 17 -6 -48
-60 -31 -3 -16 19 41 -63 14
00000000: e622 e600 d2ea b715 0c18 2b2c 2406 d90d
00000010: d72b 0dc3 1d26 8106 f90a e02f 00fa 1616
00000020: 13ec 2211 ff6d c2f1 f415 e621 0206 17fc
00000030: b599 c905 59e7 813c e5db f7b3 e74c 08f4
00000040: 7187 f6eb c902 04e6 15f9 eacb 19f0 92ee
00000050: 1bc7 b59a 2b0a a4ff fe27 084f f509 072a
00000060: 08b5 093c 7810 66f9 dfe5 f6d0 03e2 121c
00000070: e3a2 30ba 04b7 c107 b23d 4b9c d8f1 c3ce
00000080: 1308 b7cd f97f 53dd f406 dfb3 2e24 2fe4
00000090: 0907 17f2 2317 12a8 1812 ef04 0591 ef03
000000a0: e508 edfc fb32 8107 12a4 1f21 28ec e033
000000b0: ff07 01e0 9bd8 06f3 f8ff 29fd f407 03cf
000000c0: 20cc 0a4a 3108 e1f9 ddf5 15dd 4c1f e823
000000d0: d0c0 401c 24ce 7f1b e50d c7ef f109 b1d2
000000e0: 52e5 d7c2 d6d6 e903 bf5f 03f4 3d54 2d17
000000f0: c0eb dc33 f211 fad0 c4e1 fdf0 1329 c10e

model_1/block_2_expand/Conv2D i1 [48, 1, 1, 8]
-127 -12 25 -101 -119 108 0 -62
86 4 16 -29 4 66 -127 55
-45 48 -105 97 -58 127 17 54
89 -23 -17 64 6 -73 8 127
-79 -4 -6 16 -20 -31 127 -1
59 127 35 45 -120 -48 25 -21
6 -65 40 127 15 -98 -14 39
112 6 105 9 -65 30 62 127
-33 -127 41 44 85 -30 -24 7
-79 -101 14 -26 -27 9 -49 127
-35 -114 21 117 68 127 15 -13
-122 -127 27 -64 60 62 -41 117
83 -21 97 -78 27 -127 83 -5
32 14 22 127 -11 17 38 -64
-35 -14 43 5 127 -13 -2 120
-64 127 61 89 50 100 -33 79
5 -37 -71 -127 -68 71 25 59
36 127 9 67 -24 -45 -3 24
25 44 -15 -127 -55 -91 26 -26
40 -82 -127 -101 -91 119 18 -21
25 4 15 -2 127 22 32 -31
-127 -68 -54 -78 49 28 43 -3
-58 -45 86 127 40 -43 -51 112
30 43 -44 127 111 29 42 101
127 2 -127 -23 7 -23 41 -46
7 1 -50 -20 70 -24 -127 -57
127 0 95 -33 -88 40 59 103
7 -40 -34 127 36 5 -21 -94
-65 127 83 66 63 -23 -30 6
1 -2 52 -2 -74 -1 127 62
-66 -75 47 -77 -72 127 64 52
123 18 93 -26 -106 84 97 127
00000000: 81f4 199b 896c 00c2 5604 10e3 0442 8137
00000010: d330 9761 c67f 1136 59e9 ef40 06b7 087f
00000020: b1fc fa10 ece1 7fff 3b7f 232d 88d0 19eb
00000030: 06bf 287f 0f9e f227 7006 6909 bf1e 3e7f
00000040: df81 292c 55e2 e807 b19b 0ee6 e509 cf7f
00000050: dd8e 1575 447f 0ff3 8681 1bc0 3c3e d775
00000060: 53eb 61b2 1b81 53fb 200e 167f f511 26c0
00000070: ddf2 2b05 7ff3 fe78 c07f 3d59 3264 df4f
00000080: 05db b981 bc47 193b 247f 0943 e8d3 fd18
00000090: 192c f181 c9a5 1ae6 28ae 819b a577 12eb
000000a0: 1904 0ffe 7f16 20e1 81bc cab2 311c 2bfd
000000b0: c6d3 567f 28d5 cd70 1e2b d47f 6f1d 2a65
000000c0: 7f02 81e9 07e9 29d2 0701 ceec 46e8 81c7
000000d0: 7f00 5fdf a828 3b67 07d8 de7f 2405 eba2
000000e0: bf7f 5342 3fe9 e206 01fe 34fe b6ff 7f3e
000000f0: beb5 2fb3 b87f 4034 7b12 5de6 9654 617f

model_1/block_2_depthwise_BN/FusedBatchNormV3;model_1/block_2_depthwise/depthwise;model_1/block_6_expand/Conv2D i1 [1, 3, 3, 48]
-84 55 -52 -64 -5 -17 25 -11
-8 -19 3 44 4 -84 -82 31
127 -7 58 37 -111 -56 103 -111
-17 -47 -4 93 -16 15 22 127
-8 -12 -8 5 -20 -50 -12 18
89 -87 -50 38 89 -103 -12 -1
-22 -127 30 -125 -6 -17 -59 127
74 -74 17 42 21 -127 -103 16
-21 7 -22 -76 -94 5 60 127
5 -1 12 127 24 -4 12 -95
-98 22 -2 -17 127 -117 52 -9
-12 -127 -64 20 116 72 46 -30
-36 -2 12 -20 -2 36 17 66
4 20 -2 26 30 33 -81 38
81 6 -37 15 -125 44 44 38
-14 69 3 -60 -18 -1 8 -31
-72 1 4 16 -31 127 -17 12
80 -55 5 -30 59 42 -25 -9
-29 -17 -127 -16 -29 23 -8 7
36 -67 -7 -106 -24 -62 -127 127
106 3 127 71 -7 127 127 100
6 -60 -41 -3 51 -36 26 -103
15 -29 -46 -6 0 -110 38 25
74 119 -29 -10 -65 127 61 -30
-127 55 124 127 127 -110 -127 -6
-12 -127 -127 -127 127 -44 -26 36
19 -127 -94 -127 127 -5 -66 -88
127 -37 127 -69 127 127 -33 75
-127 -127 127 -127 84 -87 -127 -127
17 97 -111 15 -127 -65 127 127
-23 5 5 29 41 127 -28 56
83 15 45 -57 -11 -32 -85 -13
00000000: ac37 ccc0 fbef 19f5 f8ed 032c 04ac ae1f
00000010: 7ff9 3a25 91c8 6791 efd1 fc5d f00f 167f
00000020: f8f4 f805 ecce f412 59a9 ce26 5999 f4ff
00000030: ea81 1e83 faef c57f 4ab6 112a 1581 9910
00000040: eb07 eab4 a205 3c7f 05ff 0c7f 18fc 0ca1
00000050: 9e16 feef 7f8b 34f7 f481 c014 7448 2ee2
00000060: dcfe 0cec fe24 1142 0414 fe1a 1e21 af26
00000070: 5106 db0f 832c 2c26 f245 03c4 eeff 08e1
00000080: b801 0410 e17f ef0c 50c9 05e2 3b2a e7f7
00000090: e3ef 81f0 e317 f807 24bd f996 e8c2 817f
000000a0: 6a03 7f47 f97f 7f64 06c4 d7fd 33dc 1a99
000000b0: 0fe3 d2fa 0092 2619 4a77 e3f6 bf7f 3de2
000000c0: 8137 7c7f 7f92 81fa f481 8181 7fd4 e624
000000d0: 1381 a281 7ffb bea8 7fdb 7fbb 7f7f df4b
000000e0: 8181 7f81 54a9 8181 1161 910f 81bf 7f7f
000000f0: e905 051d 297f e438 530f 2dc7 f5e0 abf3

model_1/block_2_project/Conv2D i1 [8, 1, 1, 48]
-27 -6 -6 -37 -72 -9 -1 -15
63 11 6 1 10 19 -20 11
-30 7 -12 -19 2 14 -23 1
21 -6 86 4 -20 -78 -16 9
-3 28 127 -12 -24 -37 31 -32
29 8 -3 -19 -20 -2 -14 -87
22 -32 -10 65 1 -3 19 44
71 84 42 -54 -52 73 -1 7
-5 -29 19 -22 -58 44 -44 35
89 21 -25 30 30 2 127 27
-19 -37 -28 -4 -10 8 -19 -15
3 -17 7 23 -9 34 31 28
-72 8 -83 105 -63 -75 33 -65
-86 45 54 -91 -21 -9 -38 -1
124 30 -75 -48 -62 -27 -50 11
85 -45 126 0 73 -18 -68 11
-3 -19 41 -5 -51 24 -3 -108
54 -73 -62 -127 -10 -81 -61 93
31 -50 12 -35 37 -28 -9 -69
45 -61 2 -35 -85 -77 -16 4
16 -11 33 -41 -4 29 -80 5
79 -31 54 15 8 0 -1 -25
-39 36 28 -33 -55 21 1 -12
127 24 -49 38 -56 50 -13 -44
24 1 15 16 10 27 -13 -12
45 17 9 -46 1 3 -63 13
1 21 19 -17 -29 25 5 43
35 3 -29 11 47 -11 -12 28
-3 -3 33 18 -127 -2 49 11
12 -5 -4 19 -30 51 -32 -91
-34 -94 35 114 -27 -9 -51 96
-103 80 46 37 -80 26 74 -42
00000000: e5fa fadb b8f7 fff1 3f0b 0601 0a13 ec0b
00000010: e207 f4ed 020e e901 15fa 5604 ecb2 f009
00000020: fd1c 7ff4 e8db 1fe0 1d08 fded ecfe f2a9
00000030: 16e0 f641 01fd 132c 4754 2aca cc49 ff07
00000040: fbe3 13ea c62c d423 5915 e71e 1e02 7f1b
00000050: eddb e4fc f608 edf1 03ef 0717 f722 1f1c
00000060: b808 ad69 c1b5 21bf aa2d 36a5 ebf7 daff
00000070: 7c1e b5d0 c2e5 ce0b 55d3 7e00 49ee bc0b
00000080: fded 29fb cd18 fd94 36b7 c281 f6af c35d
00000090: 1fce 0cdd 25e4 f7bb 2dc3 02dd abb3 f004
000000a0: 10f5 21d7 fc1d b005 4fe1 360f 0800 ffe7
000000b0: d924 1cdf c915 01f4 7f18 cf26 c832 f3d4
000000c0: 1801 0f10 0a1b f3f4 2d11 09d2 0103 c10d
000000d0: 0115 13ef e319 052b 2303 e30b 2ff5 f41c
000000e0: fdfd 2112 81fe 310b 0cfb fc13 e233 e0a5
000000f0: dea2 2372 e5f7 cd60 9950 2e25 b01a 4ad6

model_1/block_3_expand/Conv2D i1 [48, 1, 1, 8]
-35 68 -46 46 27 127 33 33
57 -127 -86 -23 -34 56 68 -46
-59 52 -41 -122 -28 -127 -32 -71
-18 127 61 23 -5 -76 -24 31
-121 59 -127 84 6 -23 -46 -77
89 -117 -127 36 23 -27 75 -46
-19 -96 -65 15 -127 -57 -63 90
-25 -34 -6 -46 42 3 -29 127
16 28 -82 -85 48 -27 -127 -84
-127 54 -19 115 -6 72 105 -9
-32 -12 80 -127 -26 56 16 42
111 -17 103 42 -47 46 89 127
65 34 19 -68 67 124 89 -127
35 59 -34 61 -7 -127 -46 60
14 -127 -24 -21 3 80 44 -39
-85 3 -3 -69 45 127 -65 -33
12 -36 98 3 -31 18 127 61
67 19 60 20 -24 -94 -36 -127
-122 19 -89 -20 -26 -127 35 -89
66 31 110 -21 -57 42 117 127
18 127 46 -7 18 44 46 5
-39 38 31 -103 -59 127 4 -16
19 0 66 -8 -43 5 127 86
-76 127 59 40 -113 -88 -109 117
-23 -3 88 22 -105 127 -2 -82
-40 21 82 25 -127 42 -73 26
-39 -127 36 -36 15 37 -6 -19
-32 76 38 47 -32 127 -36 -10
18 -127 52 32 61 122 50 26
16 127 -25 22 -68 -56 -15 18
-47 68 98 89 -127 -63 -41 -102
13 69 24 51 -47 -12 12 -127
00000000: dd44 d22e 1b7f 2121 3981 aae9 de38 44d2
00000010: c534 d786 e481 e0b9 ee7f 3d17 fbb4 e81f
00000020: 873b 8154 06e9 d2b3 598b 8124 17e5 4bd2
00000030: eda0 bf0f 81c7 c15a e7de fad2 2a03 e37f
00000040: 101c aeab 30e5 81ac 8136 ed73 fa48 69f7
00000050: e0f4 5081 e638 102a 6fef 672a d12e 597f
00000060: 4122 13bc 437c 5981 233b de3d f981 d23c
00000070: 0e81 e8eb 0350 2cd9 ab03 fdbb 2d7f bfdf
00000080: 0cdc 6203 e112 7f3d 4313 3c14 e8a2 dc81
00000090: 8613 a7ec e681 23a7 421f 6eeb c72a 757f
000000a0: 127f 2ef9 122c 2e05 d926 1f99 c57f 04f0
000000b0: 1300 42f8 d505 7f56 b47f 3b28 8fa8 9375
000000c0: e9fd 5816 977f feae d815 5219 812a b71a
000000d0: d981 24dc 0f25 faed e04c 262f e07f dcf6
000000e0: 1281 3420 3d7a 321a 107f e716 bcc8 f112
000000f0: d144 6259 81c1 d79a 0d45 1833 d1f4 0c81

model_1/block_3_depthwise_BN/FusedBatchNormV3;model_1/block_3_depthwise/depthwise;model_1/block_6_expand/Conv2D i1 [1, 3, 3, 48]
-62 -70 -80 -82 -77 21 -50 -41
-60 36 29 -109 -18 4 -79 70
87 -58 -67 127 61 76 -44 82
-103 -65 82 99 56 -80 88 89
62 -62 -87 -29 -106 -59 127 62
-34 -22 24 86 53 76 -42 -57
-87 -113 -109 -127 -127 15 -82 -96
-76 81 77 -127 -55 63 -127 102
127 -97 -111 3 99 65 127 115
-95 -85 105 111 89 -105 101 88
69 -119 -105 -57 -99 -89 125 78
-92 -62 62 84 87 125 -93 -105
-31 -38 -60 -63 -88 32 -69 -41
-67 45 35 -71 -26 70 -91 37
66 -44 -35 -52 80 -127 -46 34
-35 -42 64 32 65 -39 65 40
57 -63 -49 -40 -78 -25 27 16
-65 -58 52 74 42 43 -48 -23
-91 -87 -85 -97 -119 -16 -76 -70
-90 88 62 -87 -55 35 -105 83
100 -96 -84 109 102 94 -77 105
-123 -79 92 109 83 -112 96 102
93 -81 -112 -66 -116 -78 86 91
-124 -65 61 75 102 107 -81 -74
-127 -127 -127 -118 -117 -127 -127 -127
-127 127 127 -111 -127 127 -91 127
120 -127 -127 -57 127 87 126 127
-127 -127 127 127 127 -127 127 127
127 -127 -127 -127 -127 -127 95 127
-127 -127 127 127 127 127 -127 -127
-43 -44 -84 -78 -116 -100 -98 -60
-94 54 58 -78 -61 113 -77 48
00000000: c2ba b0ae b315 ced7 c424 1d93 ee04 b146
00000010: 57c6 bd7f 3d4c d452 99bf 5263 38b0 5859
00000020: 3ec2 a9e3 96c5 7f3e deea 1856 354c d6c7
00000030: a98f 9381 810f aea0 b451 4d81 c93f 8166
00000040: 7f9f 9103 6341 7f73 a1ab 696f 5997 6558
00000050: 4589 97c7 9da7 7d4e a4c2 3e54 577d a397
00000060: e1da c4c1 a820 bbd7 bd2d 23b9 e646 a525
00000070: 42d4 ddcc 5081 d222 ddd6 4020 41d9 4128
00000080: 39c1 cfd8 b2e7 1b10 bfc6 344a 2a2b d0e9
00000090: a5a9 ab9f 89f0 b4ba a658 3ea9 c923 9753
000000a0: 64a0 ac6d 665e b369 85b1 5c6d 5390 6066
000000b0: 5daf 90be 8cb2 565b 84bf 3d4b 666b afb6
000000c0: 8181 818a 8b81 8181 817f 7f91 817f a57f
000000d0: 7881 81c7 7f57 7e7f 8181 7f7f 7f81 7f7f
000000e0: 7f81 8181 8181 5f7f 8181 7f7f 7f7f 8181
000000f0: d5d4 acb2 8c9c 9ec4 a236 3ab2 c371 b330

model_1/block_3_project/Conv2D i1 [8, 1, 1, 48]
-23 21 0 29 -22 15 2 29
-41 -7 -39 -4 -17 12 34 1
-49 -22 33 -15 -27 127 -21 -20
-22 -39 2 30 -36 38 8 -26
-11 21 36 35 18 5 28 -25
5 -33 -21 -9 -19 21 24 12
9 55 4 46 34 34 41 109
-51 -49 75 -26 -33 -27 30 -22
-22 0 38 -1 25 -127 -9 -68
10 15 -14 12 -5 6 -33 -57
-36 1 17 -8 16 56 70 -20
22 20 39 -29 -33 38 0 46
0 27 4 27 30 19 -27 33
25 10 62 19 5 -12 34 -54
20 25 -9 10 -15 127 5 -13
22 -41 -5 -2 -23 29 -22 -60
-13 9 17 -41 32 -15 -39 -28
27 -13 -10 -49 -34 32 15 20
-44 54 -4 -1 -24 38 69 -1
0 10 11 11 -11 36 46 23
-12 5 8 7 50 -78 -6 26
-20 -1 -127 35 -34 -34 -9 12
-47 -18 14 34 38 -14 -39 -28
-4 -20 16 22 26 -5 40 16
19 -3 -48 10 14 -8 19 -15
-49 11 -5 21 0 -15 -21 14
-28 32 -12 -7 0 -127 -7 -5
34 32 33 -43 47 -3 -1 10
-17 49 32 -8 -26 19 -7 7
-11 -63 -86 22 32 35 -2 -11
-3 49 81 9 -9 36 17 -103
77 -28 -17 -4 92 -76 -4 12
00000000: e915 001d ea0f 021d d7f9 d9fc ef0c 2201
00000010: cfea 21f1 e57f ebec ead9 021e dc26 08e6
00000020: f515 2423 1205 1ce7 05df ebf7 ed15 180c
00000030: 0937 042e 2222 296d cdcf 4be6 dfe5 1eea
00000040: ea00 26ff 1981 f7bc 0a0f f20c fb06 dfc7
00000050: dc01 11f8 1038 46ec 1614 27e3 df26 002e
00000060: 001b 041b 1e13 e521 190a 3e13 05f4 22ca
00000070: 1419 f70a f17f 05f3 16d7 fbfe e91d eac4
00000080: f309 11d7 20f1 d9e4 1bf3 f6cf de20 0f14
00000090: d436 fcff e826 45ff 000a 0b0b f524 2e17
000000a0: f405 0807 32b2 fa1a ecff 8123 dede f70c
000000b0: d1ee 0e22 26f2 d9e4 fcec 1016 1afb 2810
000000c0: 13fd d00a 0ef8 13f1 cf0b fb15 00f1 eb0e
000000d0: e420 f4f9 0081 f9fb 2220 21d5 2ffd ff0a
000000e0: ef31 20f8 e613 f907 f5c1 aa16 2023 fef5
000000f0: fd31 5109 f724 1199 4de4 effc 5cb4 fc0c

model_1/block_4_expand/Conv2D i1 [48, 1, 1, 8]
57 -84 39 -6 39 -127 -16 -91
-45 -53 -70 64 -127 43 -25 21
86 -56 71 -24 127 -42 14 79
7 127 -6 105 17 12 -43 -49
-27 127 87 -41 38 26 -77 10
-97 29 -6 17 127 -34 100 -14
118 -63 107 -11 30 127 75 -24
-38 -52 39 40 69 20 -48 127
15 -24 -37 -101 0 127 -60 19
-127 23 -88 1 111 -32 -72 12
-15 -78 41 24 -35 -83 -127 -79
35 83 -28 -2 -35 -85 29 127
31 -47 -91 38 -63 127 31 84
-44 -27 -127 23 -87 68 21 42
-77 127 -90 85 101 44 -22 72
-106 3 -33 -10 117 76 -69 -127
87 -127 -100 -43 -69 91 -37 -29
21 127 -112 -53 -82 34 72 -122
-80 -116 40 17 127 -84 -29 87
-55 101 -26 45 11 -107 -127 50
72 -17 32 -63 -10 -62 30 127
62 -42 127 98 -45 101 89 -28
-21 113 22 10 127 -70 -117 -68
45 -62 38 127 -10 -52 67 -41
-20 53 127 -73 -15 -15 3 -42
-57 -110 87 66 32 -8 -22 127
84 -35 -127 -98 -95 59 30 103
40 127 -105 -59 -45 20 41 -114
-16 52 -40 -91 -16 -30 -127 -40
-112 45 -127 -52 97 45 -52 3
68 -57 19 -16 -127 110 117 61
-41 67 -27 77 127 -48 -15 -25
00000000: 39ac 27fa 2781 f0a5 d3cb ba40 812b e715
00000010: 56c8 47e8 7fd6 0e4f 077f fa69 110c d5cf
00000020: e57f 57d7 261a b30a 9f1d fa11 7fde 64f2
00000030: 76c1 6bf5 1e7f 4be8 dacc 2728 4514 d07f
00000040: 0fe8 db9b 007f c413 8117 a801 6fe0 b80c
00000050: f1b2 2918 ddad 81b1 2353 e4fe ddab 1d7f
00000060: 1fd1 a526 c17f 1f54 d4e5 8117 a944 152a
00000070: b37f a655 652c ea48 9603 dff6 754c bb81
00000080: 5781 9cd5 bb5b dbe3 157f 90cb ae22 4886
00000090: b08c 2811 7fac e357 c965 e62d 0b95 8132
000000a0: 48ef 20c1 f6c2 1e7f 3ed6 7f62 d365 59e4
000000b0: eb71 160a 7fba 8bbc 2dc2 267f f6cc 43d7
000000c0: ec35 7fb7 f1f1 03d6 c792 5742 20f8 ea7f
000000d0: 54dd 819e a13b 1e67 287f 97c5 d314 298e
000000e0: f034 d8a5 f0e2 81d8 902d 81cc 612d cc03
000000f0: 44c7 13f0 816e 753d d743 e54d 7fd0 f1e7

model_1/block_4_depthwise_BN/FusedBatchNormV3;model_1/block_4_depthwise/depthwise;model_1/block_6_expand/Conv2D i1 [1, 3, 3, 48]
-122 -43 31 -7 -127 10 -127 -4
7 119 64 8 -18 42 18 32
31 24 15 -25 -127 -21 -2 46
-42 11 -15 -72 19 -112 83 35
-14 27 81 -34 14 -127 -15 109
-58 43 -19 -10 -22 6 -3 -14
6 -127 -23 34 -69 16 -103 -9
49 17 127 65 -72 -70 -96 -44
-9 -44 121 111 12 63 -53 20
-96 -6 -2 -127 7 -73 -28 -127
-11 26 -19 -127 -14 23 22 76
127 -10 -19 127 -4 -127 -1 -26
-127 -35 35 4 -126 29 -74 -5
5 127 3 -18 -47 45 25 58
-55 0 3 -19 -123 -11 20 19
-2 -6 6 -47 -41 -127 42 -5
-1 18 -58 -38 11 -100 21 79
-55 38 -15 4 1 11 3 41
52 -24 14 -7 -89 12 39 -19
-49 60 39 30 -40 -45 -67 114
-28 3 50 111 0 60 -127 -19
-31 -80 -20 -51 127 18 31 119
-127 2 127 13 -11 56 -122 -127
48 -25 5 8 -127 42 0 -53
117 -49 -127 -127 52 127 -12 127
-127 -112 -23 127 -60 -103 -127 -127
-23 -127 -73 85 113 127 -68 92
-127 64 -107 81 -56 -35 -127 -92
13 127 -115 120 -127 -38 127 -49
-47 127 -127 -79 84 90 -127 -71
64 -31 69 -10 -89 -20 1 -26
-37 50 10 -25 -44 -82 -55 99
00000000: 86d5 1ff9 810a 81fc 0777 4008 ee2a 1220
00000010: 1f18 0fe7 81eb fe2e d60b f1b8 1390 5323
00000020: f21b 51de 0e81 f16d c62b edf6 ea06 fdf2
00000030: 0681 e922 bb10 99f7 3111 7f41 b8ba a0d4
00000040: f7d4 796f 0c3f cb14 a0fa fe81 07b7 e481
00000050: f51a ed81 f217 164c 7ff6 ed7f fc81 ffe6
00000060: 81dd 2304 821d b6fb 057f 03ee d12d 193a
00000070: c900 03ed 85f5 1413 fefa 06d1 d781 2afb
00000080: ff12 c6da 0b9c 154f c926 f104 010b 0329
00000090: 34e8 0ef9 a70c 27ed cf3c 271e d8d3 bd72
000000a0: e403 326f 003c 81ed e1b0 eccd 7f12 1f77
000000b0: 8102 7f0d f538 8681 30e7 0508 812a 00cb
000000c0: 75cf 8181 347f f47f 8190 e97f c499 8181
000000d0: e981 b755 717f bc5c 8140 9551 c8dd 81a4
000000e0: 0d7f 8d78 81da 7fcf d17f 81b1 545a 81b9
000000f0: 40e1 45f6 a7ec 01e6 db32 0ae7 d4ae c963

model_1/block_4_project/Conv2D i1 [8, 1, 1, 48]
127 -14 -5 -13 -35 -89 -42 -13
51 -34 -61 -37 -31 82 -59 18
7 -3 4 9 24 -40 1 7
42 0 5 29 9 60 -39 -100
11 -61 2 -27 31 -37 -5 24
-50 -23 -25 -47 -86 -90 11 -30
-90 4 100 -68 67 50 51 18
-25 21 -6 112 28 -28 -127 -69
-98 -98 29 -27 2 96 -51 1
19 -106 34 98 35 -38 46 44
37 42 3 35 -73 -36 9 27
-11 -25 -111 16 -29 -58 -101 28
86 49 -15 -64 -52 -1 -47 -77
36 30 -84 -44 -14 58 -63 29
-4 72 0 17 47 45 -2 -2
-118 14 30 -61 -4 23 39 -86
9 -33 17 24 -48 -51 7 34
-127 -105 -30 -48 -48 -90 36 6
25 -6 16 28 -92 -22 0 48
-28 -67 -9 71 17 -28 -75 -49
-32 31 13 -55 -37 127 19 -50
31 46 50 -38 21 22 6 28
44 30 18 0 43 62 28 -17
32 -29 32 -45 -5 13 16 45
-45 8 -114 11 -15 82 16 29
-26 127 37 53 12 -67 -24 46
-22 -1 -9 22 -9 38 -73 22
-1 -9 42 -10 45 -50 109 87
44 36 6 -59 -84 18 9 -21
58 16 30 40 40 30 21 54
-28 2 37 -11 52 -71 -29 -32
-35 -59 12 -28 42 8 -12 4
00000000: 7ff2 fbf3 dda7 d6f3 33de c3db e152 c512
00000010: 07fd 0409 18d8 0107 2a00 051d 093c d99c
00000020: 0bc3 02e5 1fdb fb18 cee9 e7d1 aaa6 0be2
00000030: a604 64bc 4332 3312 e715 fa70 1ce4 81bb
00000040: 9e9e 1de5 0260 cd01 1396 2262 23da 2e2c
00000050: 252a 0323 b7dc 091b f5e7 9110 e3c6 9b1c
00000060: 5631 f1c0 ccff d1b3 241e acd4 f23a c11d
00000070: fc48 0011 2f2d fefe 8a0e 1ec3 fc17 27aa
00000080: 09df 1118 d0cd 0722 8197 e2d0 d0a6 2406
00000090: 19fa 101c a4ea 0030 e4bd f747 11e4 b5cf
000000a0: e01f 0dc9 db7f 13ce 1f2e 32da 1516 061c
000000b0: 2c1e 1200 2b3e 1cef 20e3 20d3 fb0d 102d
000000c0: d308 8e0b f152 101d e67f 2535 0cbd e82e
000000d0: eaff f716 f726 b716 fff7 2af6 2dce 6d57
000000e0: 2c24 06c5 ac12 09eb 3a10 1e28 281e 1536
000000f0: e402 25f5 34b9 e3e0 ddc5 0ce4 2a08 f404

model_1/block_5_expand/Conv2D i1 [48, 1, 1, 8]
-23 -39 -47 104 19 -82 -97 -127
127 -22 33 -25 32 -65 -4 33
0 51 6 -127 20 83 -64 58
-24 127 -54 -80 -97 -11 22 -72
-5 -67 -82 -27 13 -84 -66 -127
-42 -77 87 69 42 127 51 -108
-4 9 -48 45 3 17 -127 -37
24 -24 6 16 -40 55 127 59
5 68 -107 -36 -47 -127 -73 80
53 0 -62 -20 14 127 -52 110
-20 67 79 127 96 117 -4 -38
-20 -40 8 38 -127 48 -19 -16
-6 54 89 -79 84 -127 -125 -63
45 27 -94 -127 -23 -51 -63 99
-61 -113 -3 -77 9 -87 15 -127
10 67 69 89 88 127 -9 -24
55 15 -17 -127 48 103 -63 91
-116 94 -123 51 34 127 -114 57
-127 71 19 -24 -81 11 -14 1
127 11 -54 -43 96 -68 90 -91
127 -48 38 -42 -49 25 84 10
13 -39 -28 48 -13 29 127 27
111 28 -98 -78 25 111 83 127
-31 32 -32 -92 34 2 -127 -1
127 -66 -100 -12 77 -76 18 16
-19 -64 76 -53 78 127 -27 -98
44 -86 58 23 127 -47 -60 -71
-33 -127 56 80 16 -22 -38 98
-31 41 -127 -50 125 -97 -47 114
-90 32 127 -87 16 -40 40 41
100 -87 89 -22 -79 -127 60 -42
23 26 52 -1 -33 -4 -127 6
00000000: e9d9 d168 13ae 9f81 7fea 21e7 20bf fc21
00000010: 0033 0681 1453 c03a e87f cab0 9ff5 16b8
00000020: fbbd aee5 0dac be81 d6b3 5745 2a7f 3394
00000030: fc09 d02d 0311 81db 18e8 0610 d837 7f3b
00000040: 0544 95dc d181 b750 3500 c2ec 0e7f cc6e
00000050: ec43 4f7f 6075 fcda ecd8 0826 8130 edf0
00000060: fa36 59b1 5481 83c1 2d1b a281 e9cd c163
00000070: c38f fdb3 09a9 0f81 0a43 4559 587f f7e8
00000080: 370f ef81 3067 c15b 8c5e 8533 227f 8e39
00000090: 8147 13e8 af0b f201 7f0b cad5 60bc 5aa5
000000a0: 7fd0 26d6 cf19 540a 0dd9 e430 f31d 7f1b
000000b0: 6f1c 9eb2 196f 537f e120 e0a4 2202 81ff
000000c0: 7fbe 9cf4 4db4 1210 edc0 4ccb 4e7f e59e
000000d0: 2caa 3a17 7fd1 c4b9 df81 3850 10ea da62
000000e0: e129 81ce 7d9f d172 a620 7fa9 10d8 2829
000000f0: 64a9 59ea b181 3cd6 171a 34ff dffc 8106

model_1/block_5_depthwise_BN/FusedBatchNormV3;model_1/block_5_depthwise/depthwise;model_1/block_6_expand/Conv2D i1 [1, 3, 3, 48]
90 104 56 21 -22 -71 40 31
-79 -5 -14 81 52 12 -3 21
53 -39 116 48 80 -23 8 22
-13 -79 63 16 -35 -74 42 31
43 -96 20 38 -37 28 -6 -127
6 -89 -28 -17 3 -127 67 -127
127 41 68 -98 49 55 43 -46
-115 -103 19 127 10 -44 -127 36
-1 101 99 40 59 57 109 36
127 -65 -18 -127 -127 -67 -127 127
38 -115 -82 127 28 -85 -84 -116
21 127 -67 31 -21 -115 80 31
97 -13 35 -85 -37 -44 39 22
-45 -13 21 45 35 19 45 -6
-47 10 71 61 -58 -37 -87 3
-22 -70 -61 -31 -42 -107 -5 26
68 -57 36 41 -46 -42 2 -109
14 -31 120 -22 -7 -119 35 -59
111 21 34 43 42 85 10 -127
100 -127 -127 -57 13 46 -71 127
-127 97 90 25 17 110 123 -30
-2 120 102 21 31 -21 -107 64
67 114 -66 66 -83 -8 2 -83
-11 -53 27 -104 38 11 39 -22
-7 127 -127 64 127 58 -127 11
110 -26 -24 94 -127 127 -34 7
57 -127 -127 -16 127 22 127 -127
-93 82 -53 -10 -7 -36 31 -14
127 -36 114 -76 96 -122 127 117
127 66 -110 -5 127 51 -127 -22
54 -14 20 -127 64 61 23 -81
127 -61 -117 -18 22 23 -62 93
00000000: 5a68 3815 eab9 281f b1fb f251 340c fd15
00000010: 35d9 7430 50e9 0816 f3b1 3f10 ddb6 2a1f
00000020: 2ba0 1426 db1c fa81 06a7 e4ef 0381 4381
00000030: 7f29 449e 3137 2bd2 8d99 137f 0ad4 8124
00000040: ff65 6328 3b39 6d24 7fbf ee81 81bd 817f
00000050: 268d ae7f 1cab ac8c 157f bd1f eb8d 501f
00000060: 61f3 23ab dbd4 2716 d3f3 152d 2313 2dfa
00000070: d10a 473d c6db a903 eaba c3e1 d695 fb1a
00000080: 44c7 2429 d2d6 0293 0ee1 78ea f989 23c5
00000090: 6f15 222b 2a55 0a81 6481 81c7 0d2e b97f
000000a0: 8161 5a19 116e 7be2 fe78 6615 1feb 9540
000000b0: 4372 be42 adf8 02ad f5cb 1b98 260b 27ea
000000c0: f97f 8140 7f3a 810b 6ee6 e85e 817f de07
000000d0: 3981 81f0 7f16 7f81 a352 cbf6 f9dc 1ff2
000000e0: 7fdc 72b4 6086 7f75 7f42 92fb 7f33 81ea
000000f0: 36f2 1481 403d 17af 7fc3 8bee 1617 c25d

model_1/block_5_project/Conv2D i1 [8, 1, 1, 48]
10 45 37 32 -11 -27 52 42
4 21 -14 -12 41 -32 50 -17
-59 -33 -127 -13 43 -34 32 53
15 -15 40 -19 -8 -54 10 31
-37 44 44 2 46 71 -58 -58
7 9 -103 -43 31 21 -24 -54
-13 -54 -1 73 -21 4 -15 -23
15 19 -12 -44 14 -14 16 10
47 29 51 -39 8 37 23 -50
-6 -8 -43 -34 -32 15 -26 0
-25 -22 -104 88 15 23 -127 -18
14 -21 75 17 115 -19 -48 44
-11 1 30 -35 -25 -21 -20 113
-45 83 -43 -4 127 -13 50 -16
-56 -63 -9 40 -7 -13 23 -4
4 49 2 36 19 10 66 26
-57 -19 25 68 3 63 59 -116
34 23 -42 -36 8 34 -10 -9
24 -15 -127 -23 22 -6 45 -23
-21 -23 -2 18 -54 -44 35 18
21 51 12 29 -52 13 -73 -14
-38 -62 33 10 -65 -49 -50 21
69 44 -36 9 -48 2 31 -9
32 -50 -18 25 55 -47 45 -12
6 51 0 -3 16 -3 -61 -108
-36 14 -23 77 -2 -23 -3 56
34 50 -77 -1 30 5 -18 -5
38 -15 12 -4 -20 9 4 -28
17 -22 -127 22 -25 -4 38 39
-24 -33 61 42 10 -50 19 13
-71 -22 122 7 82 18 67 -18
-127 -1 -111 -20 -87 -99 70 79
00000000: 0a2d 2520 f5e5 342a 0415 f2f4 29e0 32ef
00000010: c5df 81f3 2bde 2035 0ff1 28ed f8ca 0a1f
00000020: db2c 2c02 2e47 c6c6 0709 99d5 1f15 e8ca
00000030: f3ca ff49 eb04 f1e9 0f13 f4d4 0ef2 100a
00000040: 2f1d 33d9 0825 17ce faf8 d5de e00f e600
00000050: e7ea 9858 0f17 81ee 0eeb 4b11 73ed d02c
00000060: f501 1edd e7eb ec71 d353 d5fc 7ff3 32f0
00000070: c8c1 f728 f9f3 17fc 0431 0224 130a 421a
00000080: c7ed 1944 033f 3b8c 2217 d6dc 0822 f6f7
00000090: 18f1 81e9 16fa 2de9 ebe9 fe12 cad4 2312
000000a0: 1533 0c1d cc0d b7f2 dac2 210a bfcf ce15
000000b0: 452c dc09 d002 1ff7 20ce ee19 37d1 2df4
000000c0: 0633 00fd 10fd c394 dc0e e94d fee9 fd38
000000d0: 2232 b3ff 1e05 eefb 26f1 0cfc ec09 04e4
000000e0: 11ea 8116 e7fc 2627 e8df 3d2a 0ace 130d
000000f0: b9ea 7a07 5212 43ee 81ff 91ec a99d 464f

model_1/block_6_expand/Conv2D i1 [48, 1, 1, 8]
34 -25 -71 9 -127 17 -62 2
-111 43 127 1 -103 -28 13 2
-1 65 -37 15 -67 -127 -16 73
-75 41 -14 127 17 -41 -71 -32
26 -9 49 -127 -13 19 -113 25
68 127 -55 -48 -31 -16 38 -108
53 -42 57 99 -36 -127 -7 -86
41 121 -47 -70 -57 -25 29 -127
1 -27 42 -8 15 12 -47 -127
-90 -1 -97 23 -127 -82 -85 -23
93 15 106 -49 -127 3 112 117
127 -28 -62 2 56 0 -59 3
-29 -102 127 20 20 6 -71 65
22 -42 59 -22 34 -127 54 -88
-96 46 127 0 -24 -69 56 -36
23 127 -40 -58 -64 -7 38 -95
26 94 -55 55 -1 -38 -19 127
41 90 -5 96 -57 85 -127 47
89 -21 127 -34 94 -101 10 -19
18 -4 15 127 36 -32 -27 -74
3 20 -35 37 -12 54 -127 8
15 1 48 19 32 127 53 -45
75 -127 -6 64 -74 76 33 32
-42 -99 -14 -121 16 -83 -21 -127
22 24 -11 -80 -56 -127 -43 62
62 78 127 15 7 19 -46 5
-112 42 127 -42 -89 -24 87 -8
-65 42 -28 -101 30 127 -9 92
20 -104 68 48 50 9 -28 127
-126 56 73 -35 -127 -2 87 -30
115 -105 17 83 -127 -18 46 -91
62 82 66 -34 -100 -12 22 127
00000000: 22e7 b909 8111 c202 912b 7f01 99e4 0d02
00000010: ff41 db0f bd81 f049 b529 f27f 11d7 b9e0
00000020: 1af7 3181 f313 8f19 447f c9d0 e1f0 2694
00000030: 35d6 3963 dc81 f9aa 2979 d1ba c7e7 1d81
00000040: 01e5 2af8 0f0c d181 a6ff 9f17 81ae abe9
00000050: 5d0f 6acf 8103 7075 7fe4 c202 3800 c503
00000060: e39a 7f14 1406 b941 16d6 3bea 2281 36a8
00000070: a02e 7f00 e8bb 38dc 177f d8c6 c0f9 26a1
00000080: 1a5e c937 ffda ed7f 295a fb60 c755 812f
00000090: 59eb 7fde 5e9b 0aed 12fc 0f7f 24e0 e5b6
000000a0: 0314 dd25 f436 8108 0f01 3013 207f 35d3
000000b0: 4b81 fa40 b64c 2120 d69d f287 10ad eb81
000000c0: 1618 f5b0 c881 d53e 3e4e 7f0f 0713 d205
000000d0: 902a 7fd6 a7e8 57f8 bf2a e49b 1e7f f75c
000000e0: 1498 4430 3209 e47f 8238 49dd 81fe 57e2
000000f0: 7397 1153 81ee 2ea5 3e52 42de 9cf4 167f

model_1/head/Conv2D i1 [32, 1, 1, 48]
-24 22 35 -75 -56 5 -44 85
-46 -39 -88 -63 -85 91 -56 43
53 96 48 6 -29 -75 -18 -18
49 -76 -15 127 79 -93 45 23
-78 112 55 -35 -11 17 -104 -4
-71 -34 81 -44 89 -15 -116 114
80 2 72 37 21 -75 -5 114
29 58 -87 62 -127 -33 19 -74
-66 -29 0 -38 98 79 -97 -73
46 -19 -37 -79 83 42 20 -77
-98 -100 -106 -91 31 -71 -48 25
-4 107 -12 24 32 0 -41 35
-11 -76 -82 -127 -51 5 58 -10
13 -63 -74 -62 39 64 -79 -118
-92 35 -54 16 -105 -63 16 13
-76 59 -53 -54 -35 -44 -93 24
38 -76 38 -9 -80 10 -71 57
47 -45 97 63 -73 -16 38 14
-88 118 75 -70 116 109 87 87
84 34 65 -44 116 14 124 120
-102 83 -35 112 -60 86 -71 -16
119 101 -73 39 66 59 -67 127
-90 49 25 -77 -75 -43 -84 -66
-72 -28 -44 36 -54 -103 -55 -33
-92 31 97 0 80 22 -54 -28
29 75 -88 -44 -58 81 42 -95
99 54 -22 -69 -84 99 -102 -25
-32 -98 108 60 29 -101 108 50
-102 65 -37 -31 112 -6 -120 -93
127 111 -113 -94 1 98 -47 -30
-123 127 -36 -49 39 -28 -42 70
-40 -86 78 57 -68 -3 120 103
00000000: e816 23b5 c805 d455 d2d9 a8c1 ab5b c82b
00000010: 3560 3006 e3b5 eeee 31b4 f17f 4fa3 2d17
00000020: b270 37dd f511 98fc b9de 51d4 59f1 8c72
00000030: 5002 4825 15b5 fb72 1d3a a93e 81df 13b6
00000040: bee3 00da 624f 9fb7 2eed dbb1 532a 14b3
00000050: 9e9c 96a5 1fb9 d019 fc6b f418 2000 d723
00000060: f5b4 ae81 cd05 3af6 0dc1 b6c2 2740 b18a
00000070: a423 ca10 97c1 100d b43b cbca ddd4 a318
00000080: 26b4 26f7 b00a b939 2fd3 613f b7f0 260e
00000090: a876 4bba 746d 5757 5422 41d4 740e 7c78
000000a0: 9a53 dd70 c456 b9f0 7765 b727 423b bd7f
000000b0: a631 19b3 b5d5 acbe b8e4 d424 ca99 c9df
000000c0: a41f 6100 5016 cae4 1d4b a8d4 c651 2aa1
000000d0: 6336 eabb ac63 9ae7 e09e 6c3c 1d9b 6c32
000000e0: 9a41 dbe1 70fa 88a3 7f6f 8fa2 0162 d1e2
000000f0: 857f dccf 27e4 d646 d8aa 4e39 bcfd 7867

model_1/logits/Conv2D i1 [3, 1, 1, 32]
-25 127 -42 -3 101 -71 -32 -75
106 -28 -46 -104 45 90 -53 -47
-68 2 -44 81 -4 -121 45 -62
21 63 111 10 31 31 -59 101
91 -49 -78 13 23 51 -114 -51
-82 117 88 23 103 74 11 -48
100 9 -127 -92 113 0 21 50
-63 60 -16 -25 69 21 -48 -25
-8 -82 94 106 10 78 -125 69
-72 32 -122 104 13 -75 101 66
95 -75 -127 92 19 55 23 57
-100 -43 -19 -22 31 76 -52 62
00000000: e77f d6fd 65b9 e0b5 6ae4 d298 2d5a cbd1
00000010: bc02 d451 fc87 2dc2 153f 6f0a 1f1f c565
00000020: 5bcf b20d 1733 8ecd ae75 5817 674a 0bd0
00000030: 6409 81a4 7100 1532 c13c f0e7 4515 d0e7
00000040: f8ae 5e6a 0a4e 8345 b820 8668 0db5 6542
00000050: 5fb5 815c 1337 1739 9cd5 edea 1f4c cc3e
