base/base-model/classification-model/trained.tflite (tflite, 214784 bytes, 28 tensors)

sequential/model/conv1/Conv2D i1 [6, 3, 3, 3]
000000 da 21 00 c0 20 22 cd 01 2e b4 02 45 82 0e 7f ae
       -38 33 0 -64 32 34 -51 1 46 -76 2 69 -126 14 127 -82
000010 0c 48 d4 e9 41 9b 00 7b bc 04 3f 32 50 13 4d 7f
       12 72 -44 -23 65 -101 0 123 -68 4 63 50 80 19 77 127
000020 1b 30 3e 12 e8 de f9 e3 f0 fd e4 e6 01 e5 dc f1
       27 48 62 18 -24 -34 -7 -29 -16 -3 -28 -26 1 -27 -36 -15
000030 c8 ab e2 e5 d8 f4 04 0b 00 0e 0e 03 03 05 04 ff
       -56 -85 -30 -27 -40 -12 4 11 0 14 14 3 3 5 4 -1
000040 eb fe f9 00 08 f6 ec 01 10 19 09 b1 81 f8 11 13
       -21 -2 -7 0 8 -10 -20 1 16 25 9 -79 -127 -8 17 19
000050 00 25 ed ec 33 d9 f7 f4 e4 23 08 bc 3b 51 81 30
       0 37 -19 -20 51 -39 -9 -12 -28 35 8 -68 59 81 -127 48
000060 40 b5 0e 30 b5 1d 1f 97 51 05 cd 2a 20 42 15 ff
       64 -75 14 48 -75 29 31 -105 81 5 -51 42 32 66 21 -1
000070 03 00 de ba e9 43 7b 23 01 0b 00 bd 81 e0 29 39
       3 0 -34 -70 -23 67 123 35 1 11 0 -67 -127 -32 41 57
000080 11 00 04 fe dc c8 ef 07 1b 0b f1 d3 fe 10 15 04
       17 0 4 -2 -36 -56 -17 7 27 11 -15 -45 -2 16 21 4
000090 ec b8 f2 48 7f 18 dd c7 ff 07 0c 0d f0 c6 fd 0d
       -20 -72 -14 72 127 24 -35 -57 -1 7 12 13 -16 -58 -3 13
0000a0 0e 05
       14 5

sequential/model/conv_dw_1_bn/FusedBatchNormV3;sequential/model/conv_dw_1/depthwise i1 [1, 3, 3, 6]
000000 17 fc d3 f0 f6 f8 d8 09 73 0e fd f8 1a fc c0 f9
       23 -4 -45 -16 -10 -8 -40 9 115 14 -3 -8 26 -4 -64 -7
000010 07 f8 e0 ec ee 03 7f f1 81 81 7f 7f cf 7f 2e f4
       7 -8 -32 -20 -18 3 127 -15 -127 -127 127 127 -49 127 46 -12
000020 d9 c7 c3 df 1a 18 f6 f8 ed f4 41 7d c8 bc 00 e7
       -39 -57 -61 -33 26 24 -10 -8 -19 -12 65 125 -56 -68 0 -25
000030 f4 11 04 1a 0b f6
       -12 17 4 26 11 -10

sequential/model/conv_pw_1/Conv2D i1 [12, 1, 1, 6]
000000 03 02 32 fe 81 ec fd ff 7f f7 1c b6 f6 eb d3 13
       3 2 50 -2 -127 -20 -3 -1 127 -9 28 -74 -10 -21 -45 19
000010 02 81 ec f7 81 03 99 47 e8 f2 8e 0a 81 4e 75 01
       2 -127 -20 -9 -127 3 -103 71 -24 -14 -114 10 -127 78 117 1
000020 02 7f 00 01 00 ff ff 81 ff 00 00 7f 22 f9 f4 3f
       2 127 0 1 0 -1 -1 -127 -1 0 0 127 34 -7 -12 63
000030 e5 f6 81 04 8a 54 81 00 05 4c fd 02 06 f7 5b fb
       -27 -10 -127 4 -118 84 -127 0 5 76 -3 2 6 -9 91 -5
000040 7f c5 f5 ee 81 00 48 7d
       127 -59 -11 -18 -127 0 72 125

sequential/model/conv_dw_2_bn/FusedBatchNormV3;sequential/model/conv_dw_2/depthwise i1 [1, 3, 3, 12]
000000 e0 4b bf 2a fe 34 ba b3 47 2b 1b d1 a8 52 ac 4e
       -32 75 -65 42 -2 52 -70 -77 71 43 27 -47 -88 82 -84 78
000010 47 43 a6 a2 ab 42 4b ae c1 0a e4 27 ad 22 e7 df
       71 67 -90 -94 -85 66 75 -82 -63 10 -28 39 -83 34 -25 -33
000020 06 1a 3e e0 d6 7d a1 48 09 57 ad a1 6b 49 36 b5
       6 26 62 -32 -42 125 -95 72 9 87 -83 -95 107 73 54 -75
000030 81 7f 81 7f 6d 7f 81 81 81 7f 7f 81 a3 0d cd 47
       -127 127 -127 127 109 127 -127 -127 -127 127 127 -127 -93 13 -51 71
000040 81 45 d6 d6 0b 3a 6d c6 f4 3c d9 24 03 32 e2 ee
       -127 69 -42 -42 11 58 109 -58 -12 60 -39 36 3 50 -30 -18
000050 49 2c 16 dd c7 3a c6 44 45 56 d9 d8 b2 48 43 c4
       73 44 22 -35 -57 58 -58 68 69 86 -39 -40 -78 72 67 -60
000060 d3 07 ed 26 c0 34 f0 fc 07 33 34 e6
       -45 7 -19 38 -64 52 -16 -4 7 51 52 -26

sequential/model/conv_pw_2/Conv2D i1 [25, 1, 1, 12]
000000 bb 0f 31 7f 0c df 28 e5 06 df 94 3e f9 03 fd fd
       -69 15 49 127 12 -33 40 -27 6 -33 -108 62 -7 3 -3 -3
000010 01 d5 09 fe 01 81 01 fe f8 54 32 81 fd 0a f1 81
       1 -43 9 -2 1 -127 1 -2 -8 84 50 -127 -3 10 -15 -127
000020 03 21 53 00 bf 26 81 13 03 2b bc b4 04 13 12 b5
       3 33 83 0 -65 38 -127 19 3 43 -68 -76 4 19 18 -75
000030 0d 2b 0d ec ac fe 0d fe 81 03 62 bc 6a 8c 07 3f
       13 43 13 -20 -84 -2 13 -2 -127 3 98 -68 106 -116 7 63
000040 d6 fc fd e3 06 2c fd 81 eb 06 f8 f7 00 fe 7f 02
       -42 -4 -3 -29 6 44 -3 -127 -21 6 -8 -9 0 -2 127 2
000050 00 ee 07 fc 02 ff 03 00 ff 75 0e fe ff 81 fb 02
       0 -18 7 -4 2 -1 3 0 -1 117 14 -2 -1 -127 -5 2
000060 4f c3 7f d2 02 e3 2e 63 0c 04 b0 76 e3 11 4b f7
       79 -61 127 -46 2 -29 46 99 12 4 -80 118 -29 17 75 -9
000070 0f 06 f8 7f 12 0a fe e3 c3 49 e7 e7 0f ea c6 0f
       15 6 -8 127 18 10 -2 -29 -61 73 -25 -25 15 -22 -58 15
000080 14 7f 50 a5 0e bc 0f 3e be fd 05 ff d1 03 7f 47
       20 127 80 -91 14 -68 15 62 -66 -3 5 -1 -47 3 127 71
000090 f8 ff 3e b0 60 f9 0e bf 77 01 04 81 d7 7f 15 92
       -8 -1 62 -80 96 -7 14 -65 119 1 4 -127 -41 127 21 -110
0000a0 fb d6 11 ff 08 1e 21 4f 10 7f 05 b9 1b 13 0b f5
       -5 -42 17 -1 8 30 33 79 16 127 5 -71 27 19 11 -11
0000b0 26 e9 fa 19 ea 33 7f 14 29 0d 04 41 27 fe 08 cb
       38 -23 -6 25 -22 51 127 20 41 13 4 65 39 -2 8 -53
0000c0 07 0d 06 0d 81 03 01 0b fb ff 04 ff c8 39 03 7f
       7 13 6 13 -127 3 1 11 -5 -1 4 -1 -56 57 3 127
0000d0 ab 07 03 18 ce e8 bf fd 52 e9 7f 34 cc 0f e6 d6
       -85 7 3 24 -50 -24 -65 -3 82 -23 127 52 -52 15 -26 -42
0000e0 cb 12 39 5c fe fe ff 03 ff 7f 09 00 02 8f fc ff
       -53 18 57 92 -2 -2 -1 3 -1 127 9 0 2 -113 -4 -1
0000f0 fe 00 01 03 01 81 a4 f9 00 0c 01 f8 12 e3 49 0f
       -2 0 1 3 1 -127 -92 -7 0 12 1 -8 18 -29 73 15

sequential/model/conv_dw_3_bn/FusedBatchNormV3;sequential/model/conv_dw_3/depthwise;sequential/model/conv_dw_4/depthwise i1 [1, 3, 3, 25]
000000 fd fc 16 01 f8 f3 ff 14 03 06 1d d2 f0 04 ee 04
       -3 -4 22 1 -8 -13 -1 20 3 6 29 -46 -16 4 -18 4
000010 eb a6 f3 17 1b 2b 00 fe 0a f9 17 33 f6 d2 f6 f1
       -21 -90 -13 23 27 43 0 -2 10 -7 23 51 -10 -46 -10 -15
000020 cf f1 ea 59 fd ce 16 06 cd fa 13 0b cb ff 7f ce
       -49 -15 -22 89 -3 -50 22 6 -51 -6 19 11 -53 -1 127 -50
000030 cb e9 03 fc 11 01 06 e7 02 12 03 0b 15 f5 f1 fd
       -53 -23 3 -4 17 1 6 -25 2 18 3 11 21 -11 -15 -3
000040 fa 09 f1 06 f5 0e 1b 17 fb 04 0b 32 1d db e8 17
       -6 9 -15 6 -11 14 27 23 -5 4 11 50 29 -37 -24 23
000050 d7 01 49 dd 07 ba 81 81 c8 25 f6 a8 81 23 ca f8
       -41 1 73 -35 7 -70 -127 -127 -56 37 -10 -88 -127 35 -54 -8
000060 d0 e7 89 42 7f 81 81 7f 81 7f 7f 81 7f 81 81 d9
       -48 -25 -119 66 127 -127 -127 127 -127 127 127 -127 127 -127 -127 -39
000070 f9 81 7f 81 7f 2d 7f 7f 81 0d 7f 81 81 01 0d e1
       -7 -127 127 -127 127 45 127 127 -127 13 127 -127 -127 1 13 -31
000080 d8 14 e8 fa 41 da 16 ca ef c6 c5 23 02 24 00 0e
       -40 20 -24 -6 65 -38 22 -54 -17 -58 -59 35 2 36 0 14
000090 de dd d1 05 d1 42 fa 04 16 02 f2 ef f6 24 07 07
       -34 -35 -47 5 -47 66 -6 4 22 2 -14 -17 -10 36 7 7
0000a0 14 f3 0d e4 f1 0a 63 c2 ec 07 1d 0a f4 0b 06 f0
       20 -13 13 -28 -15 10 99 -62 -20 7 29 10 -12 11 6 -16
0000b0 03 3a df de 1d 08 b7 e8 0a 45 06 d4 f9 0b e7 8d
       3 58 -33 -34 29 8 -73 -24 10 69 6 -44 -7 11 -25 -115
0000c0 0f f2 ea c2 3c 12 bf ed 04 fc 10 06 00 fa f9 19
       15 -14 -22 -62 60 18 -65 -19 4 -4 16 6 0 -6 -7 25
0000d0 08 08 0d 01 04 db fc 0d eb 08 f0 07 00 05 ff f4
       8 8 13 1 4 -37 -4 13 -21 8 -16 7 0 5 -1 -12
0000e0 08
       8

sequential/model/conv_pw_3/Conv2D i1 [25, 1, 1, 25]
000000 25 22 12 12 02 08 02 c6 f5 15 04 fd 13 e3 e6 ff
       37 34 18 18 2 8 2 -58 -11 21 4 -3 19 -29 -26 -1
000010 ee fa ff 7f 16 f8 1d 0d 00 fc fe 03 7f 04 0b ed
       -18 -6 -1 127 22 -8 29 13 0 -4 -2 3 127 4 11 -19
000020 00 fc 08 f1 f9 31 fc f3 f5 02 fe 05 f6 03 11 de
       0 -4 8 -15 -7 49 -4 -13 -11 2 -2 5 -10 3 17 -34
000030 17 05 36 11 49 8e e6 33 15 ee 7f 0a 0b 28 c2 21
       23 5 54 17 73 -114 -26 51 21 -18 127 10 11 40 -62 33
000040 20 29 f2 f1 ed 44 00 ee 47 fe 07 32 f5 c8 19 dd
       32 41 -14 -15 -19 68 0 -18 71 -2 7 50 -11 -56 25 -35
000050 02 12 f6 23 b9 fb f0 f1 09 d4 8e 07 e8 7f e3 16
       2 18 -10 35 -71 -5 -16 -15 9 -44 -114 7 -24 127 -29 22
000060 34 0e 25 f2 d3 f4 09 b3 d3 fc 00 fc 7f c3 fe 25
       52 14 37 -14 -45 -12 9 -77 -45 -4 0 -4 127 -61 -2 37
000070 00 27 1f 75 f7 e0 0f ed 10 ef 17 11 9e f2 f0 49
       0 39 31 117 -9 -32 15 -19 16 -17 23 17 -98 -14 -16 73
000080 04 24 0c 11 3d d8 81 d1 1e ff f7 e7 94 08 39 c8
       4 36 12 17 61 -40 -127 -47 30 -1 -9 -25 -108 8 57 -56
000090 03 ef 9e ea 1b 3c df 4a f4 07 fb fa 3f 06 05 02
       3 -17 -98 -22 27 60 -33 74 -12 7 -5 -6 63 6 5 2
0000a0 05 f4 00 d4 fe 02 0e 08 03 81 f7 03 21 23 fe 8b
       5 -12 0 -44 -2 2 14 8 3 -127 -9 3 33 35 -2 -117
0000b0 ca fb df 81 e8 f9 f2 fb eb e6 f2 e8 28 f9 30 08
       -54 -5 -33 -127 -24 -7 -14 -5 -21 -26 -14 -24 40 -7 48 8
0000c0 21 20 ed 23 e8 40 5d 00 f3 f4 bb 6a 04 fd 15 08
       33 32 -19 35 -24 64 93 0 -13 -12 -69 106 4 -3 21 8
0000d0 a1 7f f6 f8 5d e4 c0 c3 f9 fa bf 08 f8 16 00 3e
       -95 127 -10 -8 93 -28 -64 -61 -7 -6 -65 8 -8 22 0 62
0000e0 0b e3 09 db 12 c9 dd f0 9c 18 5c 41 e9 43 0b 26
       11 -29 9 -37 18 -55 -35 -16 -100 24 92 65 -23 67 11 38
0000f0 7f d1 d7 61 ea fc 2e e3 f6 d2 81 f2 dc b7 d8 d4
       127 -47 -41 97 -22 -4 46 -29 -10 -46 -127 -14 -36 -73 -40 -44

sequential/model/conv_dw_4_bn/FusedBatchNormV3;sequential/model/conv_dw_4/depthwise i1 [1, 3, 3, 25]
000000 3e c2 c5 bc 4b 46 4a ce a4 41 b9 c6 ce 42 b5 b2
       62 -62 -59 -68 75 70 74 -50 -92 65 -71 -58 -50 66 -75 -78
000010 42 b8 3a 45 44 44 c1 30 b1 61 a0 a8 a1 66 62 66
       66 -72 58 69 68 68 -63 48 -79 97 -96 -88 -95 102 98 102
000020 a8 84 69 9e a1 9e 5c 9a a3 59 ae 5d 5b 58 5a a9
       -88 -124 105 -98 -95 -98 92 -102 -93 89 -82 93 91 88 90 -87
000030 3c 95 35 cc d5 da 31 2c 30 c9 cb 36 d6 d2 c4 29
       60 -107 53 -52 -43 -38 49 44 48 -55 -53 54 -42 -46 -60 41
000040 c9 cb 28 cc 29 30 2c 28 dc 1a d1 56 ac ae a4 59
       -55 -53 40 -52 41 48 44 40 -36 26 -47 86 -84 -82 -92 89
000050 54 5e b8 91 56 a5 b3 bc 5e 96 99 62 9f 57 61 5b
       84 94 -72 -111 86 -91 -77 -68 94 -106 -103 98 -97 87 97 91
000060 5f a6 5e 9e 7f 81 81 81 7f 7f 7f 81 81 7f 81 81
       95 -90 94 -98 127 -127 -127 -127 127 127 127 -127 -127 127 -127 -127
000070 81 7f 81 81 7f 81 7f 7f 7f 7f 81 7f 81 43 c2 c1
       -127 127 -127 -127 127 -127 127 127 127 127 -127 127 -127 67 -62 -63
000080 d4 42 3d 3e b5 b7 46 c9 bf b1 3e c2 c3 38 b7 3d
       -44 66 61 62 -75 -73 70 -55 -65 -79 62 -62 -61 56 -73 61
000090 43 38 3a cb 3b c7 2b e1 dc d6 27 23 29 e4 d7 26
       67 56 58 -53 59 -57 43 -31 -36 -42 39 35 41 -28 -41 38
0000a0 d6 e3 ec 27 c3 c8 3b ca 27 23 25 2a ce 36 d9 45
       -42 -29 -20 39 -61 -56 59 -54 39 35 37 42 -50 54 -39 69
0000b0 cc c6 c7 3b 30 3c c8 cb 33 ba ce d0 3c b0 b6 4a
       -52 -58 -57 59 48 60 -56 -53 51 -70 -50 -48 60 -80 -74 74
0000c0 bc 3b 33 38 3b b9 4e c8 21 e9 e2 ee 1b 1a 1d db
       -68 59 51 56 59 -71 78 -56 33 -23 -30 -18 27 26 29 -37
0000d0 ed 20 df e8 e2 20 dd dc 26 e4 19 1d 1a 1b dc 20
       -19 32 -33 -24 -30 32 -35 -36 38 -28 25 29 26 27 -36 32
0000e0 e9
       -23

sequential/model/conv_pw_4/Conv2D i1 [51, 1, 1, 25]
000000 fb c4 2f 7f e4 f6 06 f4 b3 e8 e3 51 d2 f4 04 fc
       -5 -60 47 127 -28 -10 6 -12 -77 -24 -29 81 -46 -12 4 -4
000010 28 fd ac e4 ef 31 f3 0f 13 f3 f3 ff 17 29 31 28
       40 -3 -84 -28 -17 49 -13 15 19 -13 -13 -1 23 41 49 40
000020 fc 24 fc e9 0f f2 c8 7f d2 17 06 1e 16 3d 87 ef
       -4 36 -4 -23 15 -14 -56 127 -46 23 6 30 22 61 -121 -17
000030 30 da ef 06 02 f1 fd fb 23 fb fd fc 01 fe fb fa
       48 -38 -17 6 2 -15 -3 -5 35 -5 -3 -4 1 -2 -5 -6
000040 00 32 7f 0e 02 12 ec fc 48 fe 0c ed d1 24 7f e0
       0 50 127 14 2 18 -20 -4 72 -2 12 -19 -47 36 127 -32
000050 11 e2 de 93 f6 e6 1e d7 f0 01 fb 1b 31 bd 1b de
       17 -30 -34 -109 -10 -26 30 -41 -16 1 -5 27 49 -67 27 -34
000060 33 0b 0a 38 e9 ef fd f9 44 f9 3b e5 f4 0a 81 1a
       51 11 10 56 -23 -17 -3 -7 68 -7 59 -27 -12 10 -127 26
000070 fc fc ed 01 eb eb 07 95 d0 00 3c 04 ed 09 ce f6
       -4 -4 -19 1 -21 -21 7 -107 -48 0 60 4 -19 9 -50 -10
000080 f2 00 7f f8 e6 09 cd 0f de ea e3 03 f8 fd 10 12
       -14 0 127 -8 -26 9 -51 15 -34 -22 -29 3 -8 -3 16 18
000090 f5 08 c8 09 48 11 0a fb 04 f6 fc 08 02 ff 01 00
       -11 8 -56 9 72 17 10 -5 4 -10 -4 8 2 -1 1 0
0000a0 f4 df 0d f9 a5 33 29 07 03 f4 09 1d df 11 7f 03
       -12 -33 13 -7 -91 51 41 7 3 -12 9 29 -33 17 127 3
0000b0 e1 04 7f 0d fc f2 fa d6 fe 02 01 f1 07 1e 0e 12
       -31 4 127 13 -4 -14 -6 -42 -2 2 1 -15 7 30 14 18
0000c0 e1 00 ea 01 23 01 fd 17 3a e5 12 2f 04 24 8c 24
       -31 0 -22 1 35 1 -3 23 58 -27 18 47 4 36 -116 36
0000d0 0e fa eb cc 1f 05 89 63 37 81 0f fb 0e d2 0c 21
       14 -6 -21 -52 31 5 -119 99 55 -127 15 -5 14 -46 12 33
0000e0 18 0e eb da ec 7f 08 06 00 f9 f9 03 f0 27 13 e0
       24 14 -21 -38 -20 127 8 6 0 -7 -7 3 -16 39 19 -32
0000f0 f2 f6 10 2b 36 f2 ea 2b f4 14 03 3d 49 45 e3 0d
       -14 -10 16 43 54 -14 -22 43 -12 20 3 61 73 69 -29 13

sequential/model/conv_dw_5_bn/FusedBatchNormV3;sequential/model/conv_dw_5/depthwise;sequential/model/conv_dw_6/depthwise i1 [1, 3, 3, 51]
000000 f8 f9 01 00 fd 8f 02 f1 fd fb 16 0a fd f9 f8 fe
       -8 -7 1 0 -3 -113 2 -15 -3 -5 22 10 -3 -7 -8 -2
000010 04 01 e8 0b ff 02 f3 d2 08 fb 15 f0 22 14 ee 04
       4 1 -24 11 -1 2 -13 -46 8 -5 21 -16 34 20 -18 4
000020 f8 ff fb f9 e3 ee 0d f4 f0 dd f7 11 cd 04 f8 fc
       -8 -1 -5 -7 -29 -18 13 -12 -16 -35 -9 17 -51 4 -8 -4
000030 de 08 00 3e 1f 17 f7 ee 81 11 d8 f1 12 0f 1a ee
       -34 8 0 62 31 23 -9 -18 -127 17 -40 -15 18 15 26 -18
000040 04 1d f2 0c f7 bf 20 29 23 f8 ec 81 ab 7f dd 7f
       4 29 -14 12 -9 -65 32 41 35 -8 -20 -127 -85 127 -35 127
000050 47 09 e9 cb c2 fe f5 1c 45 21 19 12 81 0c 21 83
       71 9 -23 -53 -62 -2 -11 28 69 33 25 18 -127 12 33 -125
000060 cb dc e6 4b 33 ef dc f2 eb 00 01 d6 02 f9 08 fa
       -53 -36 -26 75 51 -17 -36 -14 -21 0 1 -42 2 -7 8 -6
000070 06 f2 08 f7 ec 05 fa 00 00 f7 f7 f5 f5 e9 33 0f
       6 -14 8 -9 -20 5 -6 0 0 -9 -9 -11 -11 -23 51 15
000080 fb fe 0a ff e8 05 08 10 f7 00 ff e1 f5 ec ed ff
       -5 -2 10 -1 -24 5 8 16 -9 0 -1 -31 -11 -20 -19 -1
000090 f3 0c eb 16 03 06 d0 c4 13 32 f5 0a ec 81 c6 06
       -13 12 -21 22 3 6 -48 -60 19 50 -11 10 -20 -127 -58 6
0000a0 e3 bf 19 45 29 d2 f3 cd 3b 1f 12 b7 14 10 22 eb
       -29 -65 25 69 41 -46 -13 -51 59 31 18 -73 20 16 34 -21
0000b0 d2 ac e2 ef 81 e0 b8 04 e9 cf e4 01 d1 81 3a 4a
       -46 -84 -30 -17 -127 -32 -72 4 -23 -49 -28 1 -47 -127 58 74
0000c0 3e f9 18 1d 16 3c ee 0e bd d8 4b fc 7f 7f 7f 81
       62 -7 24 29 22 60 -18 14 -67 -40 75 -4 127 127 127 -127
0000d0 cd 55 81 7f 81 7f 7f 7f 81 7f 90 76 7f 7f 81 7f
       -51 85 -127 127 -127 127 127 127 -127 127 -112 118 127 127 -127 127
0000e0 7f 7f 7f 81 84 d7 86 09 a7 81 7f 7f 81 81 7f 81
       127 127 127 -127 -124 -41 -122 9 -89 -127 127 127 -127 -127 127 -127
0000f0 73 7f 7f 7f 7f 54 7f 7f 7f 81 81 81 7f 3c 81 fc
       115 127 127 127 127 84 127 127 127 -127 -127 -127 127 60 -127 -4

sequential/model/conv_pw_5/Conv2D i1 [51, 1, 1, 51]
000000 e1 42 03 d1 f8 81 cc 0b fc 00 5f 17 39 1a 13 14
       -31 66 3 -47 -8 -127 -52 11 -4 0 95 23 57 26 19 20
000010 bf d3 17 0f e1 bd d9 2a ed f4 fe 08 14 f4 21 f9
       -65 -45 23 15 -31 -67 -39 42 -19 -12 -2 8 20 -12 33 -7
000020 3f 2c f2 9a 2f be f5 2e fd 13 3f 06 fb d7 c6 30
       63 44 -14 -102 47 -66 -11 46 -3 19 63 6 -5 -41 -58 48
000030 e9 3b f3 1d d0 03 e1 05 37 01 1a 1e f0 d3 af 28
       -23 59 -13 29 -48 3 -31 5 55 1 26 30 -16 -45 -81 40
000040 7f 2c 23 dc 40 e5 c8 21 a5 e2 11 d6 1f 29 1f ff
       127 44 35 -36 64 -27 -56 33 -91 -30 17 -42 31 41 31 -1
000050 2f 27 2b 09 f1 df ec e6 c4 f8 f4 e3 47 34 dc 34
       47 39 43 9 -15 -33 -20 -26 -60 -8 -12 -29 71 52 -36 52
000060 3c c7 3c 18 cf 0a 02 c0 cb 07 0a 0e 30 16 e3 1a
       60 -57 60 24 -49 10 2 -64 -53 7 10 14 48 22 -29 26
000070 fd f8 ff 0a 1c e2 aa 47 f2 13 b2 01 3d 12 2e ef
       -3 -8 -1 10 28 -30 -86 71 -14 19 -78 1 61 18 46 -17
000080 b2 ec 05 cd fb 7f ff 07 2e f1 03 d5 c9 0d 27 d4
       -78 -20 5 -51 -5 127 -1 7 46 -15 3 -43 -55 13 39 -44
000090 fc 10 e3 ee 5b 19 1a f6 f3 0e 55 0c 0c 1f 81 fa
       -4 16 -29 -18 91 25 26 -10 -13 14 85 12 12 31 -127 -6
0000a0 29 ea ea ac 1a a8 10 11 0d f0 13 fa cb 09 0b 38
       41 -22 -22 -84 26 -88 16 17 13 -16 19 -6 -53 9 11 56
0000b0 fb fa fd 06 2a 02 c2 fe 15 2b 45 f3 36 04 0a 1e
       -5 -6 -3 6 42 2 -62 -2 21 43 69 -13 54 4 10 30
0000c0 b9 21 f7 85 c8 e0 10 07 e1 b8 07 16 22 28 7f fd
       -71 33 -9 -123 -56 -32 16 7 -31 -72 7 22 34 40 127 -3
0000d0 da 09 fc 16 df fa f5 dd f0 20 c2 10 21 cc 23 09
       -38 9 -4 22 -33 -6 -11 -35 -16 32 -62 16 33 -52 35 9
0000e0 e4 f6 30 e5 f9 f8 ff df 1c 04 d5 0a 07 f7 8c 07
       -28 -10 48 -27 -7 -8 -1 -33 28 4 -43 10 7 -9 -116 7
0000f0 10 ca f7 f2 f3 1c 2b 08 ec 14 da 52 ef 20 22 dd
       16 -54 -9 -14 -13 28 43 8 -20 20 -38 82 -17 32 34 -35

sequential/model/conv_dw_6_bn/FusedBatchNormV3;sequential/model/conv_dw_6/depthwise i1 [1, 3, 3, 51]
000000 b7 c2 ab 48 b2 c3 b9 a8 4d 5c 4e 3e 45 4f a7 49
       -73 -62 -85 72 -78 -61 -71 -88 77 92 78 62 69 79 -89 73
000010 bc b9 b0 48 3e 4c 40 bf 4f 50 b4 42 4c 4a 09 c5
       -68 -71 -80 72 62 76 64 -65 79 80 -76 66 76 74 9 -59
000020 b1 42 65 57 41 c0 bb 60 48 c1 4f 36 41 bc 92 a5
       -79 66 101 87 65 -64 -69 96 72 -63 79 54 65 -68 -110 -91
000030 ba b8 47 9b ae 95 56 a7 aa a6 8d 62 68 60 56 5b
       -70 -72 71 -101 -82 -107 86 -89 -86 -90 -115 98 104 96 86 91
000040 60 90 61 ab 9d 8d 60 55 61 48 ac 61 65 a5 56 61
       96 -112 97 -85 -99 -115 96 85 97 72 -84 97 101 -91 86 97
000050 58 5c ab 9f 54 72 64 5a aa a2 64 64 ac 64 4c 58
       88 92 -85 -97 84 114 100 90 -86 -94 100 100 -84 100 76 88
000060 ab 81 13 b2 a6 60 cd da ca 24 d2 d0 d6 d4 36 2a
       -85 -127 19 -78 -90 96 -51 -38 -54 36 -46 -48 -42 -44 54 42
000070 35 22 2c 33 cb 22 dc d6 d5 32 33 31 1b dd 2e 2e
       53 34 44 51 -53 34 -36 -42 -43 50 51 49 27 -35 46 46
000080 d1 30 2d 26 96 e4 cb 2d 38 22 30 dd d2 20 2b d5
       -47 48 45 38 -106 -28 -53 45 56 34 48 -35 -46 32 43 -43
000090 2c 29 31 d0 ab 4e dd db 36 9c a2 98 60 9a a4 a3
       44 41 49 -48 -85 78 -35 -37 54 -100 -94 -104 96 -102 -92 -93
0000a0 97 66 6f 67 5f 5f 69 8f 68 98 a1 a8 62 5b 5d 6b
       -105 102 111 103 95 95 105 -113 104 -104 -95 -88 98 91 93 107
0000b0 a1 66 5f a1 5f 63 67 0a 9d 9b 5c 6f 6e 59 a8 9c
       -95 102 95 -95 95 99 103 10 -99 -101 92 111 110 89 -88 -100
0000c0 6e 61 91 66 59 58 9f 1f 81 a0 a3 59 81 81 81 7f
       110 97 -111 102 89 88 -97 31 -127 -96 -93 89 -127 -127 -127 127
0000d0 81 81 81 81 7f 7f 7f 7f 7f 7f 81 7f 81 81 81 7f
       -127 -127 -127 -127 127 127 127 127 127 127 -127 127 -127 -127 -127 127
0000e0 7f 7f 7f 81 7f 7f 81 7f 7f 7f 79 81 81 7f 7f 7f
       127 127 127 -127 127 127 -127 127 127 127 121 -127 -127 127 127 127
0000f0 7f 81 81 7f 7f 81 7f 7f 7f 81 32 1e 81 81 7f c3
       127 -127 -127 127 127 -127 127 127 127 -127 50 30 -127 -127 127 -61

sequential/model/conv_pw_6/Conv2D i1 [102, 1, 1, 51]
000000 d1 0e 18 27 ed 62 15 f2 e6 26 e4 e1 17 f2 de da
       -47 14 24 39 -19 98 21 -14 -26 38 -28 -31 23 -14 -34 -38
000010 b6 18 10 3f 08 ec 45 36 7f fb ef c7 ea e5 f5 14
       -74 24 16 63 8 -20 69 54 127 -5 -17 -57 -22 -27 -11 20
000020 22 d9 0e c4 28 bd d8 0d 26 16 12 1c e0 03 14 f9
       34 -39 14 -60 40 -67 -40 13 38 22 18 28 -32 3 20 -7
000030 dc 16 17 d9 10 ef e7 f0 24 ec 0a 01 fb f2 02 04
       -36 22 23 -39 16 -17 -25 -16 36 -20 10 1 -5 -14 2 4
000040 f3 00 15 07 08 fd 19 08 fc 00 05 37 f7 e9 1a c9
       -13 0 21 7 8 -3 25 8 -4 0 5 55 -9 -23 26 -55
000050 00 00 cc 0c d8 f8 eb 7f 11 fe 15 15 12 fd fa ea
       0 0 -52 12 -40 -8 -21 127 17 -2 21 21 18 -3 -6 -22
000060 08 19 fa 0e 0f 06 2d 81 01 09 1e 40 47 36 0f 3e
       8 25 -6 14 15 6 45 -127 1 9 30 64 71 54 15 62
000070 11 0c 05 01 d1 11 fb 61 21 12 1e e9 ff 1d ae 07
       17 12 5 1 -47 17 -5 97 33 18 30 -23 -1 29 -82 7
000080 16 04 a4 ed a0 cc ff b8 19 d9 22 dd 09 23 70 e1
       22 4 -92 -19 -96 -52 -1 -72 25 -39 34 -35 9 35 112 -31
000090 fe c8 a9 10 e0 1d 4c 06 57 2b 0f 15 3b 02 2c e3
       -2 -56 -87 16 -32 29 76 6 87 43 15 21 59 2 44 -29
0000a0 05 dc bd 1c d4 ef f5 ee fc 2a db 11 0d 2f fb 3b
       5 -36 -67 28 -44 -17 -11 -18 -4 42 -37 17 13 47 -5 59
0000b0 d3 7f dd fa fe dc a2 09 3c 44 d5 0c 26 d5 03 55
       -45 127 -35 -6 -2 -36 -94 9 60 68 -43 12 38 -43 3 85
0000c0 ed 27 ec 08 33 e0 0f 00 fe e9 fb f2 c8 d9 46 f1
       -19 39 -20 8 51 -32 15 0 -2 -23 -5 -14 -56 -39 70 -15
0000d0 cb e2 c1 41 f8 d6 d6 8c cc c9 ad 04 26 dc d3 2a
       -53 -30 -63 65 -8 -42 -42 -116 -52 -55 -83 4 38 -36 -45 42
0000e0 77 e9 1c 95 73 f6 d2 c8 2e 15 dc 01 ee c2 42 7f
       119 -23 28 -107 115 -10 -46 -56 46 21 -36 1 -18 -62 66 127
0000f0 d5 cd dd d3 58 f1 cd f2 f8 98 e1 1d 22 1b 39 f7
       -43 -51 -35 -45 88 -15 -51 -14 -8 -104 -31 29 34 27 57 -9

sequential/model/conv_dw_7_bn/FusedBatchNormV3;sequential/model/conv_dw_7/depthwise;sequential/model/conv_dw_12/depthwise i1 [1, 3, 3, 102]
000000 ed fd 03 b5 04 09 f4 d5 c2 fd 08 f6 fc 01 f2 fa
       -19 -3 3 -75 4 9 -12 -43 -62 -3 8 -10 -4 1 -14 -6
000010 08 02 f9 f0 f1 f8 e8 05 ff f5 11 ff 12 0c 76 0a
       8 2 -7 -16 -15 -8 -24 5 -1 -11 17 -1 18 12 118 10
000020 01 1c 10 05 f8 fd 0a ef 07 07 f3 fe f3 61 ff e6
       1 28 16 5 -8 -3 10 -17 7 7 -13 -2 -13 97 -1 -26
000030 f9 16 00 10 fd 91 fa fb ff ee fb f8 01 f8 03 f7
       -7 22 0 16 -3 -111 -6 -5 -1 -18 -5 -8 1 -8 3 -9
000040 06 f0 f9 02 ca d9 ee e8 fb 05 fe 06 f7 ee 01 02
       6 -16 -7 2 -54 -39 -18 -24 -5 5 -2 6 -9 -18 1 2
000050 e3 f9 01 07 d6 0e 0b fb ff fb fa dc fe 16 03 09
       -29 -7 1 7 -42 14 11 -5 -1 -5 -6 -36 -2 22 3 9
000060 f1 fe e9 05 f6 fb 00 81 fc ea ba 7f 7f 4b 88 ff
       -15 -2 -23 5 -10 -5 0 -127 -4 -22 -70 127 127 75 -120 -1
000070 7f 03 ea 81 2a f7 81 e1 9a 83 0f fe 06 fa 1e ef
       127 3 -22 -127 42 -9 -127 -31 -102 -125 15 -2 6 -6 30 -17
000080 d4 f4 9a c9 c8 fb ad a4 dd f6 06 e0 fa 0a 0f fe
       -44 -12 -102 -55 -56 -5 -83 -92 -35 -10 6 -32 -6 10 15 -2
000090 0e f3 d7 2a 10 7f dc ca e8 83 8e 81 f9 e8 fb d8
       14 -13 -41 42 16 127 -36 -54 -24 -125 -114 -127 -7 -24 -5 -40
0000a0 f2 ec d3 fe cf 25 09 f8 11 df c0 81 08 81 07 ed
       -14 -20 -45 -2 -49 37 9 -8 17 -33 -64 -127 8 -127 7 -19
0000b0 e5 fa 81 28 db fb 81 f1 f0 bc 78 ea d5 f9 7f 26
       -27 -6 -127 40 -37 -5 -127 -15 -16 -68 120 -22 -43 -7 127 38
0000c0 7f 6f e0 c6 db c1 15 ff 92 d9 02 fa ed f4 fe a8
       127 111 -32 -58 -37 -63 21 -1 -110 -39 2 -6 -19 -12 -2 -88
0000d0 f5 10 00 e5 ca fc 0b f8 f8 f5 ef 0c f3 fd d1 c3
       -11 16 0 -27 -54 -4 11 -8 -8 -11 -17 12 -13 -3 -47 -61
0000e0 ef fb ec f6 02 f8 0b 07 f8 0f 62 09 fd 10 1a 06
       -17 -5 -20 -10 2 -8 11 7 -8 15 98 9 -3 16 26 6
0000f0 f8 f9 fd fd 07 fa f2 fc e7 15 01 fa f6 17 f9 fc
       -8 -7 -3 -3 7 -6 -14 -4 -25 21 1 -6 -10 23 -7 -4

sequential/model/conv_pw_7/Conv2D i1 [102, 1, 1, 102]
000000 fe 3d fc fb e7 9f e4 e5 d8 3b d1 e9 10 dd dc e7
       -2 61 -4 -5 -25 -97 -28 -27 -40 59 -47 -23 16 -35 -36 -25
000010 0e eb f3 fe e1 03 37 04 09 df 4b 1e f2 de 3d 42
       14 -21 -13 -2 -31 3 55 4 9 -33 75 30 -14 -34 61 66
000020 0c 00 d8 b2 f8 1d e9 02 ed 01 cd ec 05 fe 24 10
       12 0 -40 -78 -8 29 -23 2 -19 1 -51 -20 5 -2 36 16
000030 af 6f d9 40 d3 0e 44 d1 02 2e dd 27 b8 ce 7f 07
       -81 111 -39 64 -45 14 68 -47 2 46 -35 39 -72 -50 127 7
000040 03 3c af dd 25 fd 28 ee 20 bc 7f 43 0d 2e f3 13
       3 60 -81 -35 37 -3 40 -18 32 -68 127 67 13 46 -13 19
000050 26 e6 37 34 07 b9 03 d1 fa 2c e4 9f 6a f3 15 2c
       38 -26 55 52 7 -71 3 -47 -6 44 -28 -97 106 -13 21 44
000060 f3 ac 26 78 02 06 ed db d9 b8 0d f0 b8 7f dc be
       -13 -84 38 120 2 6 -19 -37 -39 -72 13 -16 -72 127 -36 -66
000070 1a 17 0d ed d4 ec df 47 01 13 39 ef d1 ee 29 46
       26 23 13 -19 -44 -20 -33 71 1 19 57 -17 -47 -18 41 70
000080 33 fb 0d fa 12 30 ff 05 e7 f5 0b 41 19 04 bf d9
       51 -5 13 -6 18 48 -1 5 -25 -11 11 65 25 4 -65 -39
000090 ee 05 de 0b fc ea e2 ef e7 08 d6 37 b3 50 0b 56
       -18 5 -34 11 -4 -22 -30 -17 -25 8 -42 55 -77 80 11 86
0000a0 bf d7 32 ed 41 cc 09 fb e8 97 15 22 e5 d2 dc b0
       -65 -41 50 -19 65 -52 9 -5 -24 -105 21 34 -27 -46 -36 -80
0000b0 33 f2 0e e4 f4 04 f8 f8 34 28 fb 0e d3 f3 34 fc
       51 -14 14 -28 -12 4 -8 -8 52 40 -5 14 -45 -13 52 -4
0000c0 d8 a3 e8 17 c0 0b ba ef 47 1a 36 ed ca fa e4 11
       -40 -93 -24 23 -64 11 -70 -17 71 26 54 -19 -54 -6 -28 17
0000d0 e6 10 e1 c4 d2 1d 12 11 35 07 24 f4 0a 0c fd e8
       -26 16 -31 -60 -46 29 18 17 53 7 36 -12 10 12 -3 -24
0000e0 e4 b1 fb 2b e2 08 17 f3 f4 9a f5 e1 21 1c ef e3
       -28 -79 -5 43 -30 8 23 -13 -12 -102 -11 -31 33 28 -17 -29
0000f0 17 ef f6 08 0a 17 ea 08 ef 03 00 01 e6 e9 36 0f
       23 -17 -10 8 10 23 -22 8 -17 3 0 1 -26 -23 54 15

sequential/model/conv_dw_8_bn/FusedBatchNormV3;sequential/model/conv_dw_8/depthwise;sequential/model/conv_dw_12/depthwise i1 [1, 3, 3, 102]
000000 ff f7 10 f7 f8 f7 f9 fc f2 eb ea df 04 61 11 10
       -1 -9 16 -9 -8 -9 -7 -4 -14 -21 -22 -33 4 97 17 16
000010 ab 09 0c fe d2 03 e9 cd 0c f8 07 25 01 fc fc e3
       -85 9 12 -2 -46 3 -23 -51 12 -8 7 37 1 -4 -4 -29
000020 02 10 fd 2e b5 f5 10 ee ec e2 10 37 fb 29 05 70
       2 16 -3 46 -75 -11 16 -18 -20 -30 16 55 -5 41 5 112
000030 f8 0b 7f f4 06 12 d7 cf ba ea 24 15 d2 31 99 f9
       -8 11 127 -12 6 18 -41 -49 -70 -22 36 21 -46 49 -103 -7
000040 dd 0f f8 03 e8 fd 0c e9 ed 03 00 15 f6 fa f1 ef
       -35 15 -8 3 -24 -3 12 -23 -19 3 0 21 -10 -6 -15 -17
000050 21 81 50 fb 14 e8 0c f5 f5 fc fc fe 0b f9 ed 17
       33 -127 80 -5 20 -24 12 -11 -11 -4 -4 -2 11 -7 -19 23
000060 0d fb 1e 06 0d 03 e2 1e 04 11 e7 29 0c 1e d2 d7
       13 -5 30 6 13 3 -30 30 4 17 -25 41 12 30 -46 -41
000070 ec d3 2a 7f 7f 1a ab 15 26 25 22 2b eb b0 1d e5
       -20 -45 42 127 127 26 -85 21 38 37 34 43 -21 -80 29 -27
000080 36 bb e0 ed f1 dc 01 24 1c e6 b4 d5 7f b2 8d 81
       54 -69 -32 -19 -15 -36 1 36 28 -26 -76 -43 127 -78 -115 -127
000090 1d 75 b3 38 d1 01 d4 31 d6 e4 4b 27 cf 81 b2 23
       29 117 -77 56 -47 1 -44 49 -42 -28 75 39 -49 -127 -78 35
0000a0 0f 1e 2a 7f bc c8 c3 0b e6 04 99 33 a6 bd 26 1e
       15 30 42 127 -68 -56 -61 11 -26 4 -103 51 -90 -67 38 30
0000b0 1e d2 cd e1 be be 7f 46 7f 0e 34 d4 22 0b 7f 69
       30 -46 -51 -31 -66 -66 127 70 127 14 52 -44 34 11 127 105
0000c0 02 db 22 f6 76 53 1a df d5 ed 19 0d 0b fb 12 f7
       2 -37 34 -10 118 83 26 -33 -43 -19 25 13 11 -5 18 -9
0000d0 0d dd f9 f6 f6 f0 e1 dc 08 3a e7 1a b9 85 0e f7
       13 -35 -7 -10 -10 -16 -31 -36 8 58 -25 26 -71 -123 14 -9
0000e0 03 12 f4 cf 01 fa 01 f1 09 01 fb f0 0a 09 ff 20
       3 18 -12 -49 1 -6 1 -15 9 1 -5 -16 10 9 -1 32
0000f0 b8 f9 00 ec fb 00 0b 3e ff 1e 0d d9 f9 07 5e f7
       -72 -7 0 -20 -5 0 11 62 -1 30 13 -39 -7 7 94 -9

sequential/model/conv_pw_8/Conv2D i1 [102, 1, 1, 102]
000000 e1 11 f7 fd e2 f7 f9 13 de f3 81 f0 25 f8 f0 e4
       -31 17 -9 -3 -30 -9 -7 19 -34 -13 -127 -16 37 -8 -16 -28
000010 e1 0c 27 dc f0 b4 ef d2 00 07 cb f7 40 f4 19 c2
       -31 12 39 -36 -16 -76 -17 -46 0 7 -53 -9 64 -12 25 -62
000020 32 25 f8 38 ec d5 e2 10 93 f8 02 a7 e8 0f fc f7
       50 37 -8 56 -20 -43 -30 16 -109 -8 2 -89 -24 15 -4 -9
000030 a2 ca 03 f6 53 05 e0 f6 fb e1 f9 d9 25 dc 32 49
       -94 -54 3 -10 83 5 -32 -10 -5 -31 -7 -39 37 -36 50 73
000040 b4 29 f5 04 f1 ce d9 bd dc b7 ea 06 b8 0d 00 d6
       -76 41 -11 4 -15 -50 -39 -67 -36 -73 -22 6 -72 13 0 -42
000050 d0 13 be d2 25 c1 3e f7 d0 ed f3 f6 00 ef 26 1e
       -48 19 -66 -46 37 -63 62 -9 -48 -19 -13 -10 0 -17 38 30
000060 a9 22 fe e1 c0 c8 f3 0a 0a 09 07 f9 06 03 f6 ee
       -87 34 -2 -31 -64 -56 -13 10 10 9 7 -7 6 3 -10 -18
000070 dc fd fe 71 03 00 1a 21 01 03 f6 01 fe 0d f8 1a
       -36 -3 -2 113 3 0 26 33 1 3 -10 1 -2 13 -8 26
000080 f0 f5 0b 04 0c 1a 09 00 09 f4 f0 0f f6 f8 09 fd
       -16 -11 11 4 12 26 9 0 9 -12 -16 15 -10 -8 9 -3
000090 05 f1 0c 30 ef de 1c 02 2e ff 0a f0 f6 06 09 fc
       5 -15 12 48 -17 -34 28 2 46 -1 10 -16 -10 6 9 -4
0000a0 f6 fa 0d 10 0f 0d 0d 13 12 00 fe 16 f5 ef ff 19
       -10 -6 13 16 15 13 13 19 18 0 -2 22 -11 -17 -1 25
0000b0 04 16 e7 09 07 07 22 15 7f fc f3 da fe eb e8 fb
       4 22 -25 9 7 7 34 21 127 -4 -13 -38 -2 -21 -24 -5
0000c0 ef 00 f5 10 fa 06 02 f8 f4 08 ed 03 07 02 29 f4
       -17 0 -11 16 -6 6 2 -8 -12 8 -19 3 7 2 41 -12
0000d0 2d 05 14 45 81 eb 03 da 47 13 16 e4 36 2d 02 3c
       45 5 20 69 -127 -21 3 -38 71 19 22 -28 54 45 2 60
0000e0 f4 d5 e3 00 05 f7 ed 14 1d ff 28 e2 31 c5 ee 1b
       -12 -43 -29 0 5 -9 -19 20 29 -1 40 -30 49 -59 -18 27
0000f0 da 01 f9 26 00 c1 05 d8 29 f1 08 f6 45 c0 cf 55
       -38 1 -7 38 0 -63 5 -40 41 -15 8 -10 69 -64 -49 85

sequential/model/conv_dw_9_bn/FusedBatchNormV3;sequential/model/conv_dw_9/depthwise;sequential/model/conv_dw_12/depthwise i1 [1, 3, 3, 102]
000000 f0 7d 17 52 1a e2 b3 0d a8 f7 7f 9a 2a db b5 31
       -16 125 23 82 26 -30 -77 13 -88 -9 127 -102 42 -37 -75 49
000010 d6 4e c7 78 c8 25 5e 5b 0e b4 0f a9 e8 e3 e8 35
       -42 78 -57 120 -56 37 94 91 14 -76 15 -87 -24 -29 -24 53
000020 63 fc dc 0c 26 da c5 1a 1c db 65 12 59 13 f2 4c
       99 -4 -36 12 38 -38 -59 26 28 -37 101 18 89 19 -14 76
000030 52 15 04 bc 1c 0c ef d8 0b 3a eb cb 8e 21 f1 4c
       82 21 4 -68 28 12 -17 -40 11 58 -21 -53 -114 33 -15 76
000040 f4 81 c3 04 c4 7f 81 05 e5 f8 fa 04 e5 c9 1b 36
       -12 -127 -61 4 -60 127 -127 5 -27 -8 -6 4 -27 -55 27 54
000050 21 03 52 25 7f e9 15 af 68 19 06 df 3d d8 11 54
       33 3 82 37 127 -23 21 -81 104 25 6 -33 61 -40 17 84
000060 f4 d8 f4 ee 14 46 39 73 4d 7f 5a 48 f2 f5 be 0e
       -12 -40 -12 -18 20 70 57 115 77 127 90 72 -14 -11 -66 14
000070 2a 8b 66 d1 c1 6e d4 7f e6 5a ad 4d 6e 7f 1d 81
       42 -117 102 -47 -63 110 -44 127 -26 90 -83 77 110 127 29 -127
000080 0e 81 0e e4 f2 18 54 4b e6 07 28 de 81 24 d2 b0
       14 -127 14 -28 -14 24 84 75 -26 7 40 -34 -127 36 -46 -80
000090 7f 31 7f 21 f3 7f 7f 21 02 b0 21 33 d3 cd 34 38
       127 49 127 33 -13 127 127 33 2 -80 33 51 -45 -51 52 56
0000a0 ff e1 c1 33 e0 7f 10 96 e3 29 f7 11 c9 eb 2b 0f
       -1 -31 -63 51 -32 127 16 -106 -29 41 -9 17 -55 -21 43 15
0000b0 e7 2c da ce 2f 62 52 24 7f 49 7c bb f8 19 f4 4f
       -25 44 -38 -50 47 98 82 36 127 73 124 -69 -8 25 -12 79
0000c0 ce ff 50 d9 69 7f e3 bb dd 86 7a 36 de 7f 00 2a
       -50 -1 80 -39 105 127 -29 -69 -35 -122 122 54 -34 127 0 42
0000d0 e6 d9 ad 14 b5 f3 7d a6 26 e6 c3 27 e5 42 dd 1e
       -26 -39 -83 20 -75 -13 125 -90 38 -26 -61 39 -27 66 -35 30
0000e0 d6 15 39 2b 03 ad 1b b6 ea ea e3 e6 7a df e8 12
       -42 21 57 43 3 -83 27 -74 -22 -22 -29 -26 122 -33 -24 18
0000f0 1c df cc 15 35 f3 52 fd 30 1a f8 40 5a 16 06 f4
       28 -33 -52 21 53 -13 82 -3 48 26 -8 64 90 22 6 -12

sequential/model/conv_pw_9/Conv2D i1 [102, 1, 1, 102]
000000 03 ff f0 de 1b 0d 05 00 de 03 07 fe 1d 03 fc f8
       3 -1 -16 -34 27 13 5 0 -34 3 7 -2 29 3 -4 -8
000010 02 f7 ea 03 08 fd e8 0f e3 f6 03 f9 24 38 f1 f2
       2 -9 -22 3 8 -3 -24 15 -29 -10 3 -7 36 56 -15 -14
000020 f8 fc 2c 18 2e 9a c3 01 f5 ff f9 f1 1a 1e 81 f2
       -8 -4 44 24 46 -102 -61 1 -11 -1 -7 -15 26 30 -127 -14
000030 f9 bf 10 f9 e6 fe 0b fe 08 01 1a f9 f8 2c d4 05
       -7 -65 16 -7 -26 -2 11 -2 8 1 26 -7 -8 44 -44 5
000040 0c 1a f4 0d f4 fa 17 ec 11 cd e5 fe c7 fc c7 f9
       12 26 -12 13 -12 -6 23 -20 17 -51 -27 -2 -57 -4 -57 -7
000050 f0 ff 09 06 f1 21 06 10 fa c5 23 f9 ff 19 0c fc
       -16 -1 9 6 -15 33 6 16 -6 -59 35 -7 -1 25 12 -4
000060 a8 f3 06 11 f7 ff 91 aa 07 38 f7 cc f6 7c 0f 5a
       -88 -13 6 17 -9 -1 -111 -86 7 56 -9 -52 -10 124 15 90
000070 30 0b e3 28 e3 b4 f2 1c 0b 01 34 fc 0d e9 fc 23
       48 11 -29 40 -29 -76 -14 28 11 1 52 -4 13 -23 -4 35
000080 02 e3 0e d7 10 de dc 34 25 2a 46 0f ee 07 08 08
       2 -29 14 -41 16 -34 -36 52 37 42 70 15 -18 7 8 8
000090 10 e2 10 cf dc bd c2 1b b9 06 cf 5f f0 02 22 e2
       16 -30 16 -49 -36 -67 -62 27 -71 6 -49 95 -16 2 34 -30
0000a0 ea 1c c3 d5 33 d7 b4 36 39 da ec d2 ae 2f 47 ca
       -22 28 -61 -43 51 -41 -76 54 57 -38 -20 -46 -82 47 71 -54
0000b0 01 2c 37 df cd 51 0b 03 1a cb d8 e7 eb 26 4b 29
       1 44 55 -33 -51 81 11 3 26 -53 -40 -25 -21 38 75 41
0000c0 01 e6 2d 3b 03 db dc be 81 4c e6 f1 ef c3 f9 18
       1 -26 45 59 3 -37 -36 -66 -127 76 -26 -15 -17 -61 -7 24
0000d0 03 1e b9 df ee f6 1d bd fc fb 07 cd 9b 30 da 5b
       3 30 -71 -33 -18 -10 29 -67 -4 -5 7 -51 -101 48 -38 91
0000e0 e9 3b 04 4f 0b 0a fd 46 f3 e3 2c f8 e5 d1 09 23
       -23 59 4 79 11 10 -3 70 -13 -29 44 -8 -27 -47 9 35
0000f0 ea f1 e8 ef e9 2c df 0c 10 ee 1e e8 6f 02 e8 04
       -22 -15 -24 -17 -23 44 -33 12 16 -18 30 -24 111 2 -24 4

sequential/model/conv_dw_10_bn/FusedBatchNormV3;sequential/model/conv_dw_10/depthwise;sequential/model/conv_dw_12/depthwise i1 [1, 3, 3, 102]
000000 03 c5 fe 06 d5 ac 02 bf dd 0d 84 5c de f1 a3 7f
       3 -59 -2 6 -43 -84 2 -65 -35 13 -124 92 -34 -15 -93 127
000010 1d 98 14 df b5 26 9d 02 ee ed fc 99 53 7f 36 81
       29 -104 20 -33 -75 38 -99 2 -18 -19 -4 -103 83 127 54 -127
000020 df c7 01 f0 6e 2f 33 20 c3 28 3a 49 b4 7f 7f 94
       -33 -57 1 -16 110 47 51 32 -61 40 58 73 -76 127 127 -108
000030 b4 ea 81 dd 2a 04 05 d7 e6 f0 1c 81 7b e7 0a 75
       -76 -22 -127 -35 42 4 5 -41 -26 -16 28 -127 123 -25 10 117
000040 48 df b7 7f 81 f3 3c 0a 0c 6d f6 ee cc 58 2a d4
       72 -33 -73 127 -127 -13 60 10 12 109 -10 -18 -52 88 42 -44
000050 c7 c4 ad bb da 2b 31 81 ec d7 14 26 00 7f 92 f8
       -57 -60 -83 -69 -38 43 49 -127 -20 -41 20 38 0 127 -110 -8
000060 e1 ca 81 38 7f 7f 5f c9 44 32 81 d0 b4 d4 18 2b
       -31 -54 -127 56 127 127 95 -55 68 50 -127 -48 -76 -44 24 43
000070 ea 7f c8 91 95 1e e3 e1 7c cb af e5 c8 0c f7 25
       -22 127 -56 -111 -107 30 -29 -31 124 -53 -81 -27 -56 12 -9 37
000080 1f e2 0f 72 51 b3 ff 00 73 3c b9 12 2f dd dd 3f
       31 -30 15 114 81 -77 -1 0 115 60 -71 18 47 -35 -35 63
000090 69 7f f8 d6 fb ff d9 7f ee c3 2d ff 3c e7 98 5d
       105 127 -8 -42 -5 -1 -39 127 -18 -61 45 -1 60 -25 -104 93
0000a0 27 23 f1 45 22 3b 7f e1 ea 0c af fa e1 c5 68 3a
       39 35 -15 69 34 59 127 -31 -22 12 -81 -6 -31 -59 104 58
0000b0 2c 0e 1a f8 5b d7 18 21 d9 2d 81 a5 7f af 4d ce
       44 14 26 -8 91 -41 24 33 -39 45 -127 -91 127 -81 77 -50
0000c0 28 75 df 28 b3 20 ba ff 10 d7 24 65 c8 e1 0b a3
       40 117 -33 40 -77 32 -70 -1 16 -41 36 101 -56 -31 11 -93
0000d0 dd 81 f7 81 db ec 81 70 e8 19 81 5f 1a 81 d9 de
       -35 -127 -9 -127 -37 -20 -127 112 -24 25 -127 95 26 -127 -39 -34
0000e0 bb 36 9d df eb f3 fa a7 23 56 22 9c cf ab db f1
       -69 54 -99 -33 -21 -13 -6 -89 35 86 34 -100 -49 -85 -37 -15
0000f0 68 7f 11 30 be 27 28 30 bd 70 7c 81 af ef 93 bf
       104 127 17 48 -66 39 40 48 -67 112 124 -127 -81 -17 -109 -65

sequential/model/conv_pw_10/Conv2D i1 [102, 1, 1, 102]
000000 04 fa db ee 36 de 21 e8 28 00 91 13 00 01 19 fe
       4 -6 -37 -18 54 -34 33 -24 40 0 -111 19 0 1 25 -2
000010 ea ef 0b f6 cf 2e ec 0b fd 05 db 1e c6 4c f6 f8
       -22 -17 11 -10 -49 46 -20 11 -3 5 -37 30 -58 76 -10 -8
000020 ff 22 ef f1 f4 d2 cf 31 f1 7f 00 f9 fc fe 27 f6
       -1 34 -17 -15 -12 -46 -49 49 -15 127 0 -7 -4 -2 39 -10
000030 d4 0f 30 27 06 f4 00 1b 26 27 14 fe f1 08 02 10
       -44 15 48 39 6 -12 0 27 38 39 20 -2 -15 8 2 16
000040 16 f2 1c f1 f1 30 df fd ff e8 e1 fc ed e9 0f 1c
       22 -14 28 -15 -15 48 -33 -3 -1 -24 -31 -4 -19 -23 15 28
000050 d6 e2 f4 fa fb fb ee d2 0e d3 fa 16 2f f7 f9 02
       -42 -30 -12 -6 -5 -5 -18 -46 14 -45 -6 22 47 -9 -7 2
000060 0e fd 19 18 e5 03 ea 97 fc d3 d3 34 28 4c 62 47
       14 -3 25 24 -27 3 -22 -105 -4 -45 -45 52 40 76 98 71
000070 2c 2c 38 dc 22 01 f7 3f 3c d3 40 7f 16 ee 31 17
       44 44 56 -36 34 1 -9 63 60 -45 64 127 22 -18 49 23
000080 53 2e 1e de fc 70 e0 c2 e0 f2 5f 2f 45 c7 4b d7
       83 46 30 -34 -4 112 -32 -62 -32 -14 95 47 69 -57 75 -41
000090 50 0b 7b 10 08 e9 f6 48 41 43 a6 00 cd 07 f3 04
       80 11 123 16 8 -23 -10 72 65 67 -90 0 -51 7 -13 4
0000a0 3c 7f a0 0d 16 e2 db 03 c9 3c cc e9 e1 2a c6 69
       60 127 -96 13 22 -30 -37 3 -55 60 -52 -23 -31 42 -58 105
0000b0 4e 29 e0 34 01 18 0f 37 08 30 7f ca f4 00 f9 0d
       78 41 -32 52 1 24 15 55 8 48 127 -54 -12 0 -7 13
0000c0 0f dd a8 d5 3b ee bb 08 2e 31 ed fd e7 e0 ea 58
       15 -35 -88 -43 59 -18 -69 8 46 49 -19 -3 -25 -32 -22 88
0000d0 e9 00 2a 01 38 f8 0a fb ee ef 1a 09 12 18 fc fa
       -23 0 42 1 56 -8 10 -5 -18 -17 26 9 18 24 -4 -6
0000e0 d5 1f e8 0a d5 f8 2e 01 35 56 fa ef 06 ff 06 05
       -43 31 -24 10 -43 -8 46 1 53 86 -6 -17 6 -1 6 5
0000f0 cf f0 da 08 f2 30 1e 25 ec f4 60 26 51 28 02 ef
       -49 -16 -38 8 -14 48 30 37 -20 -12 96 38 81 40 2 -17

sequential/model/conv_dw_11_bn/FusedBatchNormV3;sequential/model/conv_dw_11/depthwise;sequential/model/conv_dw_12/depthwise i1 [1, 3, 3, 102]
000000 23 39 62 f4 f0 4f eb d1 ed 7e 53 a8 d8 b7 81 fc
       35 57 98 -12 -16 79 -21 -47 -19 126 83 -88 -40 -73 -127 -4
000010 50 84 5a e8 32 09 b5 0f 8e f8 81 71 1b 36 b5 19
       80 -124 90 -24 50 9 -75 15 -114 -8 -127 113 27 54 -75 25
000020 3c 19 19 e7 00 c2 7d ba 16 89 50 c8 2f 7f c8 28
       60 25 25 -25 0 -62 125 -70 22 -119 80 -56 47 127 -56 40
000030 ec b0 00 24 65 14 f5 ed 3e 1c be 17 0b ed 75 a4
       -20 -80 0 36 101 20 -11 -19 62 28 -66 23 11 -19 117 -92
000040 b0 0e 8f e1 e3 ce 08 ec 4f 88 16 e4 bb a7 30 1a
       -80 14 -113 -31 -29 -50 8 -20 79 -120 22 -28 -69 -89 48 26
000050 f3 ee ab 83 5c ea 12 85 e4 70 4b 7f a1 f2 26 41
       -13 -18 -85 -125 92 -22 18 -123 -28 112 75 127 -95 -14 38 65
000060 5c 7f 8b 48 00 fd 35 55 67 e5 23 7f db 81 b6 e7
       92 127 -117 72 0 -3 53 85 103 -27 35 127 -37 -127 -74 -25
000070 10 81 92 19 07 45 10 ff fc 81 4a 7f 81 81 22 e1
       16 -127 -110 25 7 69 16 -1 -4 -127 74 127 -127 -127 34 -31
000080 03 4f 29 21 dd 1e 08 44 3c 16 0c c5 37 0c 00 ee
       3 79 41 33 -35 30 8 68 60 22 12 -59 55 12 0 -18
000090 76 c6 2a 58 e1 db cf 0c a6 31 da 0b 90 2a f1 2d
       118 -58 42 88 -31 -37 -49 12 -90 49 -38 11 -112 42 -15 45
0000a0 e5 55 d3 c7 5b d4 09 ee d9 06 32 36 e6 cc 7f a4
       -27 85 -45 -57 91 -44 9 -18 -39 6 50 54 -26 -52 127 -92
0000b0 e3 1c ff d6 05 1f 78 e0 e4 b8 c4 81 7f aa b9 68
       -29 28 -1 -42 5 31 120 -32 -28 -72 -60 -127 127 -86 -71 104
0000c0 1d ec a6 1f 28 02 26 18 95 ed 51 f5 26 46 6c dc
       29 -20 -90 31 40 2 38 24 -107 -19 81 -11 38 70 108 -36
0000d0 fb 2f f2 c7 e4 39 3d b0 e2 cb 9c d8 3d 81 3c d4
       -5 47 -14 -57 -28 57 61 -80 -30 -53 -100 -40 61 -127 60 -44
0000e0 2d 08 a4 f6 47 e3 87 7f 1c 33 da 2b e8 05 0b 02
       45 8 -92 -10 71 -29 -121 127 28 51 -38 43 -24 5 11 2
0000f0 1f a5 7f b3 fe 81 7f c0 21 69 0f 2c fb e0 e8 0b
       31 -91 127 -77 -2 -127 127 -64 33 105 15 44 -5 -32 -24 11

sequential/model/conv_pw_11/Conv2D i1 [102, 1, 1, 102]
000000 b3 05 02 fb ef 08 bd c0 1d ca f8 0b fd ec f9 d1
       -77 5 2 -5 -17 8 -67 -64 29 -54 -8 11 -3 -20 -7 -47
000010 23 dc 54 de 16 a7 41 09 06 f5 d5 f9 c7 e9 14 e1
       35 -36 84 -34 22 -89 65 9 6 -11 -43 -7 -57 -23 20 -31
000020 a8 b2 f9 00 34 e3 07 42 08 de bf fd 11 1c 13 46
       -88 -78 -7 0 52 -29 7 66 8 -34 -65 -3 17 28 19 70
000030 1d f5 25 4a 1e fa 2d fd e4 aa 18 0a 19 35 1d c5
       29 -11 37 74 30 -6 45 -3 -28 -86 24 10 25 53 29 -59
000040 00 6e e3 d6 0c ec e1 10 71 33 d2 46 39 f8 eb fd
       0 110 -29 -42 12 -20 -31 16 113 51 -46 70 57 -8 -21 -3
000050 17 c8 e6 d9 ad fd c5 39 e5 fc 0a 0b 49 1c 05 08
       23 -56 -26 -39 -83 -3 -59 57 -27 -4 10 11 73 28 5 8
000060 81 f6 20 62 eb fd d8 95 fa ae 03 18 cf c4 ed f6
       -127 -10 32 98 -21 -3 -40 -107 -6 -82 3 24 -49 -60 -19 -10
000070 c6 f8 1b 44 19 0d 13 42 f7 24 3c 08 2a ef e4 1c
       -58 -8 27 68 25 13 19 66 -9 36 60 8 42 -17 -28 28
000080 15 0c f6 a7 30 11 26 20 56 16 0f ed 12 fa e1 2b
       21 12 -10 -89 48 17 38 32 86 22 15 -19 18 -6 -31 43
000090 d8 0a fc ff a3 cd 31 f4 02 03 07 26 fc f0 d3 51
       -40 10 -4 -1 -93 -51 49 -12 2 3 7 38 -4 -16 -45 81
0000a0 35 b5 dc ce 7f 2b d3 29 f3 21 e8 d2 bf f0 a8 02
       53 -75 -36 -50 127 43 -45 41 -13 33 -24 -46 -65 -16 -88 2
0000b0 0e 38 32 d7 d3 fb 1f f3 e9 48 ca 10 15 ec d7 e9
       14 56 50 -41 -45 -5 31 -13 -23 72 -54 16 21 -20 -41 -23
0000c0 ab c5 da 33 b7 3a ba c4 04 23 51 33 0b 27 fd d5
       -85 -59 -38 51 -73 58 -70 -60 4 35 81 51 11 39 -3 -43
0000d0 57 fb 16 03 fa 26 d6 38 f3 3b 15 1c 22 0f f1 f6
       87 -5 22 3 -6 38 -42 56 -13 59 21 28 34 15 -15 -10
0000e0 e7 0b 1d 0d e4 e5 17 04 10 ed 18 0f d7 b8 40 12
       -25 11 29 13 -28 -27 23 4 16 -19 24 15 -41 -72 64 18
0000f0 cf 15 10 fc 1d fa 0b 32 53 f2 13 f2 22 be fb e6
       -49 21 16 -4 29 -6 11 50 83 -14 19 -14 34 -66 -5 -26

sequential/model/conv_dw_12_bn/FusedBatchNormV3;sequential/model/conv_dw_12/depthwise i1 [1, 3, 3, 102]
000000 84 96 34 56 b0 81 84 7f a4 81 7c 73 68 86 19 0c
       -124 -106 52 86 -80 -127 -124 127 -92 -127 124 115 104 -122 25 12
000010 74 c7 d1 6b 09 4f 81 ba 8f a9 81 5a 5b e2 99 db
       116 -57 -47 107 9 79 -127 -70 -113 -87 -127 90 91 -30 -103 -37
000020 bb cb cc e5 61 44 2c 8f 67 87 81 55 5a 7f 90 8a
       -69 -53 -52 -27 97 68 44 -113 103 -121 -127 85 90 127 -112 -118
000030 db 53 67 81 61 e0 8a d2 76 7f 8b 7d 7f a6 57 cf
       -37 83 103 -127 97 -32 -118 -46 118 127 -117 125 127 -90 87 -49
000040 78 3c e7 81 64 65 7c 6c b6 7f 73 48 eb 5c 4a 69
       120 60 -25 -127 100 101 124 108 -74 127 115 72 -21 92 74 105
000050 55 81 b5 4d 44 7f 9e 81 4c 81 76 53 ac 72 aa 71
       85 -127 -75 77 68 127 -98 -127 76 -127 118 83 -84 114 -86 113
000060 b0 46 c8 67 81 d5 81 b6 3c 2b b6 94 87 6e b2 c2
       -80 70 -56 103 -127 -43 -127 -74 60 43 -74 -108 -121 110 -78 -62
000070 77 7f 7f a3 ca 7f 7f b6 81 7f fb 46 b3 e2 81 ba
       119 127 127 -93 -54 127 127 -74 -127 127 -5 70 -77 -30 -127 -70
000080 a2 57 6c cc 82 cf ae dc e2 f2 66 47 f5 81 7f 81
       -94 87 108 -52 -126 -49 -82 -36 -30 -14 102 71 -11 -127 127 -127
000090 bb 4b 76 6f a3 90 e1 5e 7f b5 7f d2 e3 0f 65 61
       -69 75 118 111 -93 -112 -31 94 127 -75 127 -46 -29 15 101 97
0000a0 86 7f 74 81 44 ae 7f 53 d9 a4 45 61 7a 4b 83 67
       -122 127 116 -127 68 -82 127 83 -39 -92 69 97 122 75 -125 103
0000b0 7f 46 cd 57 5e 59 6e ca b9 64 1f 79 9e a6 54 93
       127 70 -51 87 94 89 110 -54 -71 100 31 121 -98 -90 84 -109
0000c0 7f 6a 81 3d bd 7f ca 3f d8 7f ba b0 d7 e1 11 20
       127 106 -127 61 -67 127 -54 63 -40 127 -70 -80 -41 -31 17 32
0000d0 ea f3 d9 1f ef d5 22 2e d2 dd 10 d4 15 e3 03 f6
       -22 -13 -39 31 -17 -43 34 46 -46 -35 16 -44 21 -29 3 -10
0000e0 e8 01 e4 e4 f9 da e6 29 10 fe e5 0f e9 0c fc 39
       -24 1 -28 -28 -7 -38 -26 41 16 -2 -27 15 -23 12 -4 57
0000f0 27 12 f3 fa 16 e7 d4 20 18 fd d4 f2 e9 fa fd dd
       39 18 -13 -6 22 -25 -44 32 24 -3 -44 -14 -23 -6 -3 -35

sequential/model/conv_pw_12/Conv2D i1 [204, 1, 1, 102]
000000 0e 1a f3 25 b6 1b f8 f0 f1 e0 40 3d fb e8 e1 27
       14 26 -13 37 -74 27 -8 -16 -15 -32 64 61 -5 -24 -31 39
000010 47 0e f9 ee f6 09 02 5e c4 17 f0 d1 81 19 20 f8
       71 14 -7 -18 -10 9 2 94 -60 23 -16 -47 -127 25 32 -8
000020 17 00 2a e7 dc d1 17 12 d8 d7 f4 1a 42 e0 10 13
       23 0 42 -25 -36 -47 23 18 -40 -41 -12 26 66 -32 16 19
000030 ae 3b 0d 50 2b 0f c2 23 ec 2a f0 3b 8b 3e d6 c3
       -82 59 13 80 43 15 -62 35 -20 42 -16 59 -117 62 -42 -61
000040 02 27 dc ec 48 34 4c 2f 07 2a fa 2c f6 70 e6 d5
       2 39 -36 -20 72 52 76 47 7 42 -6 44 -10 112 -26 -43
000050 14 f2 ec 14 5b d3 f3 f1 e0 18 e3 e2 fc 08 11 f2
       20 -14 -20 20 91 -45 -13 -15 -32 24 -29 -30 -4 8 17 -14
000060 0b d8 3e d5 05 26 09 18 c1 02 43 f3 d9 fa fc f0
       11 -40 62 -43 5 38 9 24 -63 2 67 -13 -39 -6 -4 -16
000070 7f e6 de 0d f7 ea f7 fe 41 24 19 01 fd 06 db e8
       127 -26 -34 13 -9 -22 -9 -2 65 36 25 1 -3 6 -37 -24
000080 31 d2 df e3 20 18 04 1c d3 ca fe 1a f3 d3 06 01
       49 -46 -33 -29 32 24 4 28 -45 -54 -2 26 -13 -45 6 1
000090 0d fd 07 15 f8 16 fa 0a eb ec da c6 ee 0c 09 f3
       13 -3 7 21 -8 22 -6 10 -21 -20 -38 -58 -18 12 9 -13
0000a0 17 38 3d cf fc f5 29 09 fa 24 f8 6e 25 04 f1 00
       23 56 61 -49 -4 -11 41 9 -6 36 -8 110 37 4 -15 0
0000b0 dd e5 d8 26 cd e2 f9 06 eb 00 01 17 18 09 05 2b
       -35 -27 -40 38 -51 -30 -7 6 -21 0 1 23 24 9 5 43
0000c0 e4 eb 11 0b d6 ed ba f9 20 00 fd 21 05 49 3f ad
       -28 -21 17 11 -42 -19 -70 -7 32 0 -3 33 5 73 63 -83
0000d0 10 4c ca c3 0b 2e 2d 1b f3 bd f4 f6 7f 2d 1c d7
       16 76 -54 -61 11 46 45 27 -13 -67 -12 -10 127 45 28 -41
0000e0 fe 1f 03 1c 1a a0 d4 b5 03 ee b1 ee 03 fd 5e 63
       -2 31 3 28 26 -96 -44 -75 3 -18 -79 -18 3 -3 94 99
0000f0 e1 f2 43 fc 02 16 dc f0 37 18 79 fc 21 55 eb 34
       -31 -14 67 -4 2 22 -36 -16 55 24 121 -4 33 85 -21 52

sequential/model/conv_dw_13_bn/FusedBatchNormV3;sequential/model/conv_dw_13/depthwise;sequential/model/conv_pw_13/Conv2D i1 [1, 3, 3, 204]
000000 b0 09 9f 9e 1a e5 00 dd 16 f1 ef 8d fb b6 dd f9
       -80 9 -97 -98 26 -27 0 -35 22 -15 -17 -115 -5 -74 -35 -7
000010 aa fa aa 84 03 02 3f 9b a3 c8 e9 0b 1b 38 c0 65
       -86 -6 -86 -124 3 2 63 -101 -93 -56 -23 11 27 56 -64 101
000020 09 5e 05 c8 2c 06 e3 35 1d ea 81 b0 a5 f3 88 ac
       9 94 5 -56 44 6 -29 53 29 -22 -127 -80 -91 -13 -120 -84
000030 cd 2d f4 01 22 e3 88 17 ed fd ba c2 ed 39 08 5c
       -51 45 -12 1 34 -29 -120 23 -19 -3 -70 -62 -19 57 8 92
000040 9a 38 07 1c 0f 2f 18 9a c6 c0 15 f6 ab 9b cb 27
       -102 56 7 28 15 47 24 -102 -58 -64 21 -10 -85 -101 -53 39
000050 d3 27 ff fb 53 b8 b0 f2 1d 8d 31 8a 0a 05 3f 13
       -45 39 -1 -5 83 -72 -80 -14 29 -115 49 -118 10 5 63 19
000060 1b 69 05 7f fa d0 08 01 0a 82 30 dc bc 81 b4 d3
       27 105 5 127 -6 -48 8 1 10 -126 48 -36 -68 -127 -76 -45
000070 11 12 fc 00 2f 81 70 9e 48 1a f7 59 ad 1f 09 b0
       17 18 -4 0 47 -127 112 -98 72 26 -9 89 -83 31 9 -80
000080 fd d8 5e 00 08 10 9e 2f b3 a0 14 4a 17 02 18 30
       -3 -40 94 0 8 16 -98 47 -77 -96 20 74 23 2 24 48
000090 8f b7 12 47 3e 1f ee 13 0a bb de 95 88 3c 27 ce
       -113 -73 18 71 62 31 -18 19 10 -69 -34 -107 -120 60 39 -50
0000a0 7f a9 d4 8c 3b 32 bf 81 cc e9 59 c7 81 0a 87 7f
       127 -87 -44 -116 59 50 -65 -127 -52 -23 89 -57 -127 10 -121 127
0000b0 81 67 1d 28 81 b4 1f a4 a6 3a e7 cf 18 fc 02 bc
       -127 103 29 40 -127 -76 31 -92 -90 58 -25 -49 24 -4 2 -68
0000c0 b6 ee fa e2 54 8e be 3f e2 99 a2 2b da 59 df b4
       -74 -18 -6 -30 84 -114 -66 63 -30 -103 -94 43 -38 89 -33 -76
0000d0 2a dc 59 6b 12 f7 ba ec 32 93 c3 36 9f bc a8 c3
       42 -36 89 107 18 -9 -70 -20 50 -109 -61 54 -97 -68 -88 -61
0000e0 48 0f 7f de b6 c0 81 5e 0d 69 46 35 7f 43 26 90
       72 15 127 -34 -74 -64 -127 94 13 105 70 53 127 67 38 -112
0000f0 4a 58 81 6f 5a 34 f9 a9 87 bf b8 81 dc 58 7f 2c
       74 88 -127 111 90 52 -7 -87 -121 -65 -72 -127 -36 88 127 44

sequential/model/conv_pw_13/Conv2D i1 [204, 1, 1, 204]
000000 f6 c8 19 1c ea de 45 05 04 3d 07 04 f5 14 e2 f3
       -10 -56 25 28 -22 -34 69 5 4 61 7 4 -11 20 -30 -13
000010 e0 d5 22 0f c8 e2 37 00 1d fc 18 08 e2 25 fc 09
       -32 -43 34 15 -56 -30 55 0 29 -4 24 8 -30 37 -4 9
000020 00 e2 f2 f4 e9 35 e5 b7 13 01 16 22 16 11 e3 00
       0 -30 -14 -12 -23 53 -27 -73 19 1 22 34 22 17 -29 0
000030 50 e9 08 48 05 2c c5 2b 0c fa 21 2e 4e ea 07 dc
       80 -23 8 72 5 44 -59 43 12 -6 33 46 78 -22 7 -36
000040 32 f9 e5 e8 f4 ee c9 2a 0d 05 29 e6 f9 1a b2 30
       50 -7 -27 -24 -12 -18 -55 42 13 5 41 -26 -7 26 -78 48
000050 3d e1 17 18 f9 e6 25 26 18 13 3d d0 59 63 f7 37
       61 -31 23 24 -7 -26 37 38 24 19 61 -48 89 99 -9 55
000060 0c 06 f7 04 cb 39 79 f9 dd b4 40 06 f5 19 e3 13
       12 6 -9 4 -53 57 121 -7 -35 -76 64 6 -11 25 -29 19
000070 3a e2 ce eb e6 ee 12 27 f6 13 e9 30 04 0b 16 e6
       58 -30 -50 -21 -26 -18 18 39 -10 19 -23 48 4 11 22 -26
000080 e3 f1 13 4d eb 11 fa d5 0b e5 ff e8 f4 f6 f0 e8
       -29 -15 19 77 -21 17 -6 -43 11 -27 -1 -24 -12 -10 -16 -24
000090 e0 cb 37 fb 3e 59 e2 ff c2 ae 1c 08 c9 09 fe ec
       -32 -53 55 -5 62 89 -30 -1 -62 -82 28 8 -55 9 -2 -20
0000a0 d6 dc c6 13 02 ed 29 18 fb f8 28 b1 0b e7 0c 14
       -42 -36 -58 19 2 -19 41 24 -5 -8 40 -79 11 -25 12 20
0000b0 2f 73 ea ae 18 04 10 8c b1 ed f6 dd 05 4e 24 1f
       47 115 -22 -82 24 4 16 -116 -79 -19 -10 -35 5 78 36 31
0000c0 fe d8 54 e5 fb 46 da 81 e7 cb 09 2a d4 02 fe f5
       -2 -40 84 -27 -5 70 -38 -127 -25 -53 9 42 -44 2 -2 -11
0000d0 f7 e6 07 db e3 b1 f2 fb cb 0b fb 03 c4 ea d6 e9
       -9 -26 7 -37 -29 -79 -14 -5 -53 11 -5 3 -60 -22 -42 -23
0000e0 05 1c ce 0f fb f1 03 14 2c 3b ff fa c7 09 19 4d
       5 28 -50 15 -5 -15 3 20 44 59 -1 -6 -57 9 25 77
0000f0 1c 0c 38 c9 e2 cd 3b ef 19 14 e9 1e 17 c4 c5 d1
       28 12 56 -55 -30 -51 59 -17 25 20 -23 30 23 -60 -59 -47

sequential/dense/MatMul i1 [2, 204] scale=0.0015696876 zero_point=0
000000 a5 4e 1e 40 5a eb af 1b aa e3 d7 e9 a6 64 ee b6
       -0.14284158 0.12243564 0.047090627 0.10046001 0.14127189 -0.03296344 -0.1271447 0.042381566 -0.13499314 -0.045520943 -0.06435719 -0.036102816 -0.14127189 0.15696876 -0.028254377 -0.11615688
000010 8a 57 f2 37 ba c9 fc 41 50 61 ba 7d 4c bd 17 1e
       -0.18522313 0.13656282 -0.021975627 0.08633282 -0.10987813 -0.08633282 -0.0062787505 0.102029696 0.125575 0.1522597 -0.10987813 0.19621095 0.11929626 -0.10516907 0.036102816 0.047090627
000020 53 d7 9c f6 58 2c a9 4c f4 9a 19 a6 da 3e 19 8d
       0.13028407 -0.06435719 -0.15696876 -0.015696876 0.13813251 0.06906626 -0.13656282 0.11929626 -0.018836252 -0.16010813 0.03924219 -0.14127189 -0.05964813 0.09732063 0.03924219 -0.18051408
000030 d6 28 30 ec 37 eb 55 50 c3 e4 a5 3c de a0 7a e9
       -0.06592688 0.0627875 0.07534501 -0.03139375 0.08633282 -0.03296344 0.13342345 0.125575 -0.09575094 -0.043951254 -0.14284158 0.094181255 -0.05336938 -0.15069002 0.19150189 -0.036102816
000040 25 4b e4 45 50 fa d6 ce 47 87 29 22 36 4d 8c cf
       0.05807844 0.11772657 -0.043951254 0.10830845 0.125575 -0.009418126 -0.06592688 -0.07848438 0.11144782 -0.1899322 0.06435719 0.05336938 0.08476313 0.12086595 -0.18208377 -0.07691469
000050 d2 01 a0 4a db c3 df 9c 11 0d c9 74 39 3a 5a 3f
       -0.07220563 0.0015696876 -0.15069002 0.11615688 -0.05807844 -0.09575094 -0.051799692 -0.15696876 0.02668469 0.020405939 -0.08633282 0.18208377 0.0894722 0.091041885 0.14127189 0.09889032
000060 4c 6b b3 70 ef 48 ea 23 34 8d 32 2a ae eb 09 9b
       0.11929626 0.16795658 -0.12086595 0.17580502 -0.02668469 0.11301751 -0.03453313 0.054939065 0.081623755 -0.18051408 0.07848438 0.06592688 -0.12871438 -0.03296344 0.014127188 -0.15853845
000070 0e bb 22 e2 9b 62 ac e4 4f ca fb cb cd 94 ca f4
       0.021975627 -0.10830845 0.05336938 -0.047090627 -0.15853845 0.15382938 -0.13185376 -0.043951254 0.124005325 -0.08476313 -0.007848438 -0.08319344 -0.08005407 -0.16952626 -0.08476313 -0.018836252
000080 04 b9 d3 b5 0f d6 16 84 3c 6d 13 cb ad af dc 45
       0.0062787505 -0.11144782 -0.070635945 -0.11772657 0.023545314 -0.06592688 0.03453313 -0.19464126 0.094181255 0.17109595 0.029824065 -0.08319344 -0.13028407 -0.1271447 -0.056508753 0.10830845
000090 53 92 00 22 4c 27 61 ca a7 89 50 f9 3c 9d a3 eb
       0.13028407 -0.17266564 0.0 0.05336938 0.11929626 0.06121782 0.1522597 -0.08476313 -0.1397022 -0.18679282 0.125575 -0.010987814 0.094181255 -0.15539907 -0.14598095 -0.03296344
0000a0 86 6c 23 aa 22 2f ed d3 56 2c 50 3b b0 0d 18 15
       -0.19150189 0.16952626 0.054939065 -0.13499314 0.05336938 0.07377532 -0.029824065 -0.070635945 0.13499314 0.06906626 0.125575 0.092611566 -0.125575 0.020405939 0.037672505 0.03296344
0000b0 8d 93 e5 48 c0 07 25 22 e6 14 db 87 ba 0e 8e 26
       -0.18051408 -0.17109595 -0.042381566 0.11301751 -0.10046001 0.010987814 0.05807844 0.05336938 -0.040811878 0.03139375 -0.05807844 -0.1899322 -0.10987813 0.021975627 -0.1789444 0.05964813
0000c0 54 96 19 ca a3 a7 e8 9d 9d fc b3 f9 ad b8 22 fb
       0.13185376 -0.16638689 0.03924219 -0.08476313 -0.14598095 -0.1397022 -0.037672505 -0.15539907 -0.15539907 -0.0062787505 -0.12086595 -0.010987814 -0.13028407 -0.11301751 0.05336938 -0.007848438
0000d0 2b 47 5b b2 e6 aa 37 cb 0b e3 cf 06 d4 79 38 2a
       0.06749657 0.11144782 0.14284158 -0.12243564 -0.040811878 -0.13499314 0.08633282 -0.08319344 0.017266564 -0.045520943 -0.07691469 0.009418126 -0.06906626 0.1899322 0.08790251 0.06592688
0000e0 b8 59 5d 25 4f 2b 2f d6 6e 95 ae f7 d4 d7 b8 13
       -0.11301751 0.1397022 0.14598095 0.05807844 0.124005325 0.06749657 0.07377532 -0.06592688 0.17266564 -0.16795658 -0.12871438 -0.014127188 -0.06906626 -0.06435719 -0.11301751 0.029824065
0000f0 64 e1 ed 6d a3 ba a2 3c 0c f9 2a 6c 59 7e 6c 57
       0.15696876 -0.048660316 -0.029824065 0.17109595 -0.14598095 -0.10987813 -0.14755064 0.094181255 0.018836252 -0.010987814 0.06592688 0.16952626 0.1397022 0.19778064 0.16952626 0.13656282
